{"format": "graph-model", "generatedBy": "2.10.0", "convertedBy": "TensorFlow.js Converter v4.10.0", "signature": {"inputs": {"input_5:0": {"name": "input_5:0", "dtype": "DT_FLOAT", "tensorShape": {"dim": [{"size": "-1"}, {"size": "-1"}]}}, "input_6:0": {"name": "input_6:0", "dtype": "DT_FLOAT", "tensorShape": {"dim": [{"size": "-1"}, {"size": "-1"}]}}}, "outputs": {"output_1": {"name": "Identity:0", "dtype": "DT_FLOAT", "tensorShape": {"dim": [{"size": "-1"}, {"size": "-1"}, {"size": "1000"}]}}}}, "modelTopology": {"node": [{"name": "StatefulPartitionedCall/transformer_2/dense_34/Tensordot/Const", "op": "Const", "attr": {"value": {"tensor": {"dtype": "DT_INT32", "tensorShape": {"dim": [{"size": "1"}]}}}, "dtype": {"type": "DT_INT32"}}}, {"name": "StatefulPartitionedCall/transformer_2/dense_34/Tensordot/axes", "op": "Const", "attr": {"value": {"tensor": {"dtype": "DT_INT32", "tensorShape": {"dim": [{"size": "1"}]}}}, "dtype": {"type": "DT_INT32"}}}, {"name": "StatefulPartitionedCall/transformer_2/dense_34/Tensordot/GatherV2_1/axis", "op": "Const", "attr": {"value": {"tensor": {"dtype": "DT_INT32", "tensorShape": {}}}, "dtype": {"type": "DT_INT32"}}}, {"name": "StatefulPartitionedCall/transformer_2/dense_34/Tensordot/Const_1", "op": "Const", "attr": {"value": {"tensor": {"dtype": "DT_INT32", "tensorShape": {"dim": [{"size": "1"}]}}}, "dtype": {"type": "DT_INT32"}}}, {"name": "StatefulPartitionedCall/transformer_2/dense_34/Tensordot/ReadVariableOp", "op": "Const", "attr": {"value": {"tensor": {"dtype": "DT_FLOAT", "tensorShape": {"dim": [{"size": "128"}, {"size": "1000"}]}}}, "dtype": {"type": "DT_FLOAT"}}}, {"name": "StatefulPartitionedCall/transformer_2/decoder_2/decoder_layer_7/feed_forward_15/layer_normalization_39/Reshape/shape/0", "op": "Const", "attr": {"value": {"tensor": {"dtype": "DT_INT32", "tensorShape": {}}}, "dtype": {"type": "DT_INT32"}}}, {"name": "StatefulPartitionedCall/transformer_2/decoder_2/decoder_layer_7/feed_forward_15/layer_normalization_39/strided_slice_2/stack", "op": "Const", "attr": {"value": {"tensor": {"dtype": "DT_INT32", "tensorShape": {"dim": [{"size": "1"}]}}}, "dtype": {"type": "DT_INT32"}}}, {"name": "StatefulPartitionedCall/transformer_2/decoder_2/decoder_layer_7/feed_forward_15/layer_normalization_39/strided_slice_2/stack_1", "op": "Const", "attr": {"value": {"tensor": {"dtype": "DT_INT32", "tensorShape": {"dim": [{"size": "1"}]}}}, "dtype": {"type": "DT_INT32"}}}, {"name": "StatefulPartitionedCall/transformer_2/decoder_2/decoder_layer_7/feed_forward_15/layer_normalization_39/strided_slice_2/stack_2", "op": "Const", "attr": {"value": {"tensor": {"dtype": "DT_INT32", "tensorShape": {"dim": [{"size": "1"}]}}}, "dtype": {"type": "DT_INT32"}}}, {"name": "StatefulPartitionedCall/transformer_2/decoder_2/decoder_layer_7/feed_forward_15/layer_normalization_39/Reshape/shape/3", "op": "Const", "attr": {"value": {"tensor": {"dtype": "DT_INT32", "tensorShape": {}}}, "dtype": {"type": "DT_INT32"}}}, {"name": "StatefulPartitionedCall/transformer_2/decoder_2/decoder_layer_7/feed_forward_15/layer_normalization_39/ones/Const", "op": "Const", "attr": {"value": {"tensor": {"dtype": "DT_FLOAT", "tensorShape": {}}}, "dtype": {"type": "DT_FLOAT"}}}, {"name": "StatefulPartitionedCall/transformer_2/decoder_2/decoder_layer_7/feed_forward_15/layer_normalization_39/strided_slice/stack", "op": "Const", "attr": {"value": {"tensor": {"dtype": "DT_INT32", "tensorShape": {"dim": [{"size": "1"}]}}}, "dtype": {"type": "DT_INT32"}}}, {"name": "StatefulPartitionedCall/transformer_2/decoder_2/decoder_layer_7/feed_forward_15/layer_normalization_39/strided_slice/stack_1", "op": "Const", "attr": {"value": {"tensor": {"dtype": "DT_INT32", "tensorShape": {"dim": [{"size": "1"}]}}}, "dtype": {"type": "DT_INT32"}}}, {"name": "StatefulPartitionedCall/transformer_2/decoder_2/decoder_layer_7/feed_forward_15/layer_normalization_39/strided_slice/stack_2", "op": "Const", "attr": {"value": {"tensor": {"dtype": "DT_INT32", "tensorShape": {"dim": [{"size": "1"}]}}}, "dtype": {"type": "DT_INT32"}}}, {"name": "StatefulPartitionedCall/transformer_2/decoder_2/decoder_layer_7/feed_forward_15/layer_normalization_39/strided_slice_1/stack", "op": "Const", "attr": {"value": {"tensor": {"dtype": "DT_INT32", "tensorShape": {"dim": [{"size": "1"}]}}}, "dtype": {"type": "DT_INT32"}}}, {"name": "StatefulPartitionedCall/transformer_2/decoder_2/decoder_layer_7/feed_forward_15/layer_normalization_39/strided_slice_1/stack_1", "op": "Const", "attr": {"value": {"tensor": {"dtype": "DT_INT32", "tensorShape": {"dim": [{"size": "1"}]}}}, "dtype": {"type": "DT_INT32"}}}, {"name": "StatefulPartitionedCall/transformer_2/decoder_2/decoder_layer_7/feed_forward_15/layer_normalization_39/strided_slice_1/stack_2", "op": "Const", "attr": {"value": {"tensor": {"dtype": "DT_INT32", "tensorShape": {"dim": [{"size": "1"}]}}}, "dtype": {"type": "DT_INT32"}}}, {"name": "StatefulPartitionedCall/transformer_2/decoder_2/decoder_layer_7/feed_forward_15/layer_normalization_39/zeros/Const", "op": "Const", "attr": {"value": {"tensor": {"dtype": "DT_FLOAT", "tensorShape": {}}}, "dtype": {"type": "DT_FLOAT"}}}, {"name": "StatefulPartitionedCall/transformer_2/decoder_2/decoder_layer_7/feed_forward_15/layer_normalization_39/Const", "op": "Const", "attr": {"value": {"tensor": {"dtype": "DT_FLOAT", "tensorShape": {"dim": [{}]}}}, "dtype": {"type": "DT_FLOAT"}}}, {"name": "StatefulPartitionedCall/transformer_2/decoder_2/decoder_layer_7/feed_forward_15/layer_normalization_39/Const_1", "op": "Const", "attr": {"value": {"tensor": {"dtype": "DT_FLOAT", "tensorShape": {"dim": [{}]}}}, "dtype": {"type": "DT_FLOAT"}}}, {"name": "StatefulPartitionedCall/transformer_2/decoder_2/decoder_layer_7/feed_forward_15/sequential_15/dense_33/Tensordot/Const", "op": "Const", "attr": {"value": {"tensor": {"dtype": "DT_INT32", "tensorShape": {"dim": [{"size": "1"}]}}}, "dtype": {"type": "DT_INT32"}}}, {"name": "StatefulPartitionedCall/transformer_2/decoder_2/decoder_layer_7/feed_forward_15/sequential_15/dense_33/Tensordot/axes", "op": "Const", "attr": {"value": {"tensor": {"dtype": "DT_INT32", "tensorShape": {"dim": [{"size": "1"}]}}}, "dtype": {"type": "DT_INT32"}}}, {"name": "StatefulPartitionedCall/transformer_2/decoder_2/decoder_layer_7/feed_forward_15/sequential_15/dense_33/Tensordot/GatherV2_1/axis", "op": "Const", "attr": {"value": {"tensor": {"dtype": "DT_INT32", "tensorShape": {}}}, "dtype": {"type": "DT_INT32"}}}, {"name": "StatefulPartitionedCall/transformer_2/decoder_2/decoder_layer_7/feed_forward_15/sequential_15/dense_33/Tensordot/Const_1", "op": "Const", "attr": {"value": {"tensor": {"dtype": "DT_INT32", "tensorShape": {"dim": [{"size": "1"}]}}}, "dtype": {"type": "DT_INT32"}}}, {"name": "StatefulPartitionedCall/transformer_2/decoder_2/decoder_layer_7/feed_forward_15/sequential_15/dense_33/Tensordot/ReadVariableOp", "op": "Const", "attr": {"value": {"tensor": {"dtype": "DT_FLOAT", "tensorShape": {"dim": [{"size": "2048"}, {"size": "128"}]}}}, "dtype": {"type": "DT_FLOAT"}}}, {"name": "StatefulPartitionedCall/transformer_2/decoder_2/decoder_layer_7/feed_forward_15/sequential_15/dense_32/Tensordot/Const", "op": "Const", "attr": {"value": {"tensor": {"dtype": "DT_INT32", "tensorShape": {"dim": [{"size": "1"}]}}}, "dtype": {"type": "DT_INT32"}}}, {"name": "StatefulPartitionedCall/transformer_2/decoder_2/decoder_layer_7/feed_forward_15/sequential_15/dense_32/Tensordot/axes", "op": "Const", "attr": {"value": {"tensor": {"dtype": "DT_INT32", "tensorShape": {"dim": [{"size": "1"}]}}}, "dtype": {"type": "DT_INT32"}}}, {"name": "StatefulPartitionedCall/transformer_2/decoder_2/decoder_layer_7/feed_forward_15/sequential_15/dense_32/Tensordot/GatherV2_1/axis", "op": "Const", "attr": {"value": {"tensor": {"dtype": "DT_INT32", "tensorShape": {}}}, "dtype": {"type": "DT_INT32"}}}, {"name": "StatefulPartitionedCall/transformer_2/decoder_2/decoder_layer_7/feed_forward_15/sequential_15/dense_32/Tensordot/Const_1", "op": "Const", "attr": {"value": {"tensor": {"dtype": "DT_INT32", "tensorShape": {"dim": [{"size": "1"}]}}}, "dtype": {"type": "DT_INT32"}}}, {"name": "StatefulPartitionedCall/transformer_2/decoder_2/decoder_layer_7/feed_forward_15/sequential_15/dense_32/Tensordot/ReadVariableOp", "op": "Const", "attr": {"value": {"tensor": {"dtype": "DT_FLOAT", "tensorShape": {"dim": [{"size": "128"}, {"size": "2048"}]}}}, "dtype": {"type": "DT_FLOAT"}}}, {"name": "StatefulPartitionedCall/transformer_2/decoder_2/decoder_layer_7/cross_attention_7/layer_normalization_38/Reshape/shape/0", "op": "Const", "attr": {"value": {"tensor": {"dtype": "DT_INT32", "tensorShape": {}}}, "dtype": {"type": "DT_INT32"}}}, {"name": "StatefulPartitionedCall/transformer_2/decoder_2/decoder_layer_7/cross_attention_7/layer_normalization_38/strided_slice_2/stack", "op": "Const", "attr": {"value": {"tensor": {"dtype": "DT_INT32", "tensorShape": {"dim": [{"size": "1"}]}}}, "dtype": {"type": "DT_INT32"}}}, {"name": "StatefulPartitionedCall/transformer_2/decoder_2/decoder_layer_7/cross_attention_7/layer_normalization_38/strided_slice_2/stack_1", "op": "Const", "attr": {"value": {"tensor": {"dtype": "DT_INT32", "tensorShape": {"dim": [{"size": "1"}]}}}, "dtype": {"type": "DT_INT32"}}}, {"name": "StatefulPartitionedCall/transformer_2/decoder_2/decoder_layer_7/cross_attention_7/layer_normalization_38/strided_slice_2/stack_2", "op": "Const", "attr": {"value": {"tensor": {"dtype": "DT_INT32", "tensorShape": {"dim": [{"size": "1"}]}}}, "dtype": {"type": "DT_INT32"}}}, {"name": "StatefulPartitionedCall/transformer_2/decoder_2/decoder_layer_7/cross_attention_7/layer_normalization_38/Reshape/shape/3", "op": "Const", "attr": {"value": {"tensor": {"dtype": "DT_INT32", "tensorShape": {}}}, "dtype": {"type": "DT_INT32"}}}, {"name": "StatefulPartitionedCall/transformer_2/decoder_2/decoder_layer_7/cross_attention_7/layer_normalization_38/ones/Const", "op": "Const", "attr": {"value": {"tensor": {"dtype": "DT_FLOAT", "tensorShape": {}}}, "dtype": {"type": "DT_FLOAT"}}}, {"name": "StatefulPartitionedCall/transformer_2/decoder_2/decoder_layer_7/cross_attention_7/layer_normalization_38/strided_slice/stack", "op": "Const", "attr": {"value": {"tensor": {"dtype": "DT_INT32", "tensorShape": {"dim": [{"size": "1"}]}}}, "dtype": {"type": "DT_INT32"}}}, {"name": "StatefulPartitionedCall/transformer_2/decoder_2/decoder_layer_7/cross_attention_7/layer_normalization_38/strided_slice/stack_1", "op": "Const", "attr": {"value": {"tensor": {"dtype": "DT_INT32", "tensorShape": {"dim": [{"size": "1"}]}}}, "dtype": {"type": "DT_INT32"}}}, {"name": "StatefulPartitionedCall/transformer_2/decoder_2/decoder_layer_7/cross_attention_7/layer_normalization_38/strided_slice/stack_2", "op": "Const", "attr": {"value": {"tensor": {"dtype": "DT_INT32", "tensorShape": {"dim": [{"size": "1"}]}}}, "dtype": {"type": "DT_INT32"}}}, {"name": "StatefulPartitionedCall/transformer_2/decoder_2/decoder_layer_7/cross_attention_7/layer_normalization_38/strided_slice_1/stack", "op": "Const", "attr": {"value": {"tensor": {"dtype": "DT_INT32", "tensorShape": {"dim": [{"size": "1"}]}}}, "dtype": {"type": "DT_INT32"}}}, {"name": "StatefulPartitionedCall/transformer_2/decoder_2/decoder_layer_7/cross_attention_7/layer_normalization_38/strided_slice_1/stack_1", "op": "Const", "attr": {"value": {"tensor": {"dtype": "DT_INT32", "tensorShape": {"dim": [{"size": "1"}]}}}, "dtype": {"type": "DT_INT32"}}}, {"name": "StatefulPartitionedCall/transformer_2/decoder_2/decoder_layer_7/cross_attention_7/layer_normalization_38/strided_slice_1/stack_2", "op": "Const", "attr": {"value": {"tensor": {"dtype": "DT_INT32", "tensorShape": {"dim": [{"size": "1"}]}}}, "dtype": {"type": "DT_INT32"}}}, {"name": "StatefulPartitionedCall/transformer_2/decoder_2/decoder_layer_7/cross_attention_7/layer_normalization_38/zeros/Const", "op": "Const", "attr": {"value": {"tensor": {"dtype": "DT_FLOAT", "tensorShape": {}}}, "dtype": {"type": "DT_FLOAT"}}}, {"name": "StatefulPartitionedCall/transformer_2/decoder_2/decoder_layer_7/cross_attention_7/layer_normalization_38/Const", "op": "Const", "attr": {"value": {"tensor": {"dtype": "DT_FLOAT", "tensorShape": {"dim": [{}]}}}, "dtype": {"type": "DT_FLOAT"}}}, {"name": "StatefulPartitionedCall/transformer_2/decoder_2/decoder_layer_7/cross_attention_7/layer_normalization_38/Const_1", "op": "Const", "attr": {"value": {"tensor": {"dtype": "DT_FLOAT", "tensorShape": {"dim": [{}]}}}, "dtype": {"type": "DT_FLOAT"}}}, {"name": "StatefulPartitionedCall/transformer_2/decoder_2/decoder_layer_7/cross_attention_7/multi_head_attention_23/key/einsum/Einsum/ReadVariableOp", "op": "Const", "attr": {"value": {"tensor": {"dtype": "DT_FLOAT", "tensorShape": {"dim": [{"size": "128"}, {"size": "8"}, {"size": "128"}]}}}, "dtype": {"type": "DT_FLOAT"}}}, {"name": "StatefulPartitionedCall/transformer_2/decoder_2/decoder_layer_7/cross_attention_7/multi_head_attention_23/key/add/ReadVariableOp", "op": "Const", "attr": {"value": {"tensor": {"dtype": "DT_FLOAT", "tensorShape": {"dim": [{"size": "8"}, {"size": "128"}]}}}, "dtype": {"type": "DT_FLOAT"}}}, {"name": "StatefulPartitionedCall/transformer_2/decoder_2/decoder_layer_7/causal_self_attention_7/layer_normalization_37/Reshape/shape/0", "op": "Const", "attr": {"value": {"tensor": {"dtype": "DT_INT32", "tensorShape": {}}}, "dtype": {"type": "DT_INT32"}}}, {"name": "StatefulPartitionedCall/transformer_2/decoder_2/decoder_layer_7/causal_self_attention_7/layer_normalization_37/strided_slice_2/stack", "op": "Const", "attr": {"value": {"tensor": {"dtype": "DT_INT32", "tensorShape": {"dim": [{"size": "1"}]}}}, "dtype": {"type": "DT_INT32"}}}, {"name": "StatefulPartitionedCall/transformer_2/decoder_2/decoder_layer_7/causal_self_attention_7/layer_normalization_37/strided_slice_2/stack_1", "op": "Const", "attr": {"value": {"tensor": {"dtype": "DT_INT32", "tensorShape": {"dim": [{"size": "1"}]}}}, "dtype": {"type": "DT_INT32"}}}, {"name": "StatefulPartitionedCall/transformer_2/decoder_2/decoder_layer_7/causal_self_attention_7/layer_normalization_37/strided_slice_2/stack_2", "op": "Const", "attr": {"value": {"tensor": {"dtype": "DT_INT32", "tensorShape": {"dim": [{"size": "1"}]}}}, "dtype": {"type": "DT_INT32"}}}, {"name": "StatefulPartitionedCall/transformer_2/decoder_2/decoder_layer_7/causal_self_attention_7/layer_normalization_37/Reshape/shape/3", "op": "Const", "attr": {"value": {"tensor": {"dtype": "DT_INT32", "tensorShape": {}}}, "dtype": {"type": "DT_INT32"}}}, {"name": "StatefulPartitionedCall/transformer_2/decoder_2/decoder_layer_7/causal_self_attention_7/layer_normalization_37/ones/Const", "op": "Const", "attr": {"value": {"tensor": {"dtype": "DT_FLOAT", "tensorShape": {}}}, "dtype": {"type": "DT_FLOAT"}}}, {"name": "StatefulPartitionedCall/transformer_2/decoder_2/decoder_layer_7/causal_self_attention_7/layer_normalization_37/strided_slice/stack", "op": "Const", "attr": {"value": {"tensor": {"dtype": "DT_INT32", "tensorShape": {"dim": [{"size": "1"}]}}}, "dtype": {"type": "DT_INT32"}}}, {"name": "StatefulPartitionedCall/transformer_2/decoder_2/decoder_layer_7/causal_self_attention_7/layer_normalization_37/strided_slice/stack_1", "op": "Const", "attr": {"value": {"tensor": {"dtype": "DT_INT32", "tensorShape": {"dim": [{"size": "1"}]}}}, "dtype": {"type": "DT_INT32"}}}, {"name": "StatefulPartitionedCall/transformer_2/decoder_2/decoder_layer_7/causal_self_attention_7/layer_normalization_37/strided_slice/stack_2", "op": "Const", "attr": {"value": {"tensor": {"dtype": "DT_INT32", "tensorShape": {"dim": [{"size": "1"}]}}}, "dtype": {"type": "DT_INT32"}}}, {"name": "StatefulPartitionedCall/transformer_2/decoder_2/decoder_layer_7/causal_self_attention_7/layer_normalization_37/strided_slice_1/stack", "op": "Const", "attr": {"value": {"tensor": {"dtype": "DT_INT32", "tensorShape": {"dim": [{"size": "1"}]}}}, "dtype": {"type": "DT_INT32"}}}, {"name": "StatefulPartitionedCall/transformer_2/decoder_2/decoder_layer_7/causal_self_attention_7/layer_normalization_37/strided_slice_1/stack_1", "op": "Const", "attr": {"value": {"tensor": {"dtype": "DT_INT32", "tensorShape": {"dim": [{"size": "1"}]}}}, "dtype": {"type": "DT_INT32"}}}, {"name": "StatefulPartitionedCall/transformer_2/decoder_2/decoder_layer_7/causal_self_attention_7/layer_normalization_37/strided_slice_1/stack_2", "op": "Const", "attr": {"value": {"tensor": {"dtype": "DT_INT32", "tensorShape": {"dim": [{"size": "1"}]}}}, "dtype": {"type": "DT_INT32"}}}, {"name": "StatefulPartitionedCall/transformer_2/decoder_2/decoder_layer_7/causal_self_attention_7/layer_normalization_37/zeros/Const", "op": "Const", "attr": {"value": {"tensor": {"dtype": "DT_FLOAT", "tensorShape": {}}}, "dtype": {"type": "DT_FLOAT"}}}, {"name": "StatefulPartitionedCall/transformer_2/decoder_2/decoder_layer_7/causal_self_attention_7/layer_normalization_37/Const", "op": "Const", "attr": {"value": {"tensor": {"dtype": "DT_FLOAT", "tensorShape": {"dim": [{}]}}}, "dtype": {"type": "DT_FLOAT"}}}, {"name": "StatefulPartitionedCall/transformer_2/decoder_2/decoder_layer_7/causal_self_attention_7/layer_normalization_37/Const_1", "op": "Const", "attr": {"value": {"tensor": {"dtype": "DT_FLOAT", "tensorShape": {"dim": [{}]}}}, "dtype": {"type": "DT_FLOAT"}}}, {"name": "StatefulPartitionedCall/transformer_2/decoder_2/decoder_layer_7/causal_self_attention_7/multi_head_attention_22/key/einsum/Einsum/ReadVariableOp", "op": "Const", "attr": {"value": {"tensor": {"dtype": "DT_FLOAT", "tensorShape": {"dim": [{"size": "128"}, {"size": "8"}, {"size": "128"}]}}}, "dtype": {"type": "DT_FLOAT"}}}, {"name": "StatefulPartitionedCall/transformer_2/decoder_2/decoder_layer_7/causal_self_attention_7/multi_head_attention_22/key/add/ReadVariableOp", "op": "Const", "attr": {"value": {"tensor": {"dtype": "DT_FLOAT", "tensorShape": {"dim": [{"size": "8"}, {"size": "128"}]}}}, "dtype": {"type": "DT_FLOAT"}}}, {"name": "StatefulPartitionedCall/transformer_2/decoder_2/decoder_layer_7/causal_self_attention_7/multi_head_attention_22/query/einsum/Einsum/ReadVariableOp", "op": "Const", "attr": {"value": {"tensor": {"dtype": "DT_FLOAT", "tensorShape": {"dim": [{"size": "128"}, {"size": "8"}, {"size": "128"}]}}}, "dtype": {"type": "DT_FLOAT"}}}, {"name": "StatefulPartitionedCall/transformer_2/decoder_2/decoder_layer_7/causal_self_attention_7/multi_head_attention_22/query/add/ReadVariableOp", "op": "Const", "attr": {"value": {"tensor": {"dtype": "DT_FLOAT", "tensorShape": {"dim": [{"size": "8"}, {"size": "128"}]}}}, "dtype": {"type": "DT_FLOAT"}}}, {"name": "StatefulPartitionedCall/transformer_2/decoder_2/decoder_layer_7/causal_self_attention_7/multi_head_attention_22/Mul/y", "op": "Const", "attr": {"value": {"tensor": {"dtype": "DT_FLOAT", "tensorShape": {}}}, "dtype": {"type": "DT_FLOAT"}}}, {"name": "StatefulPartitionedCall/transformer_2/decoder_2/decoder_layer_7/causal_self_attention_7/multi_head_attention_22/softmax_4/sub/x", "op": "Const", "attr": {"value": {"tensor": {"dtype": "DT_FLOAT", "tensorShape": {}}}, "dtype": {"type": "DT_FLOAT"}}}, {"name": "StatefulPartitionedCall/transformer_2/decoder_2/decoder_layer_7/causal_self_attention_7/multi_head_attention_22/ones/packed/0", "op": "Const", "attr": {"value": {"tensor": {"dtype": "DT_INT32", "tensorShape": {}}}, "dtype": {"type": "DT_INT32"}}}, {"name": "StatefulPartitionedCall/transformer_2/decoder_2/decoder_layer_7/causal_self_attention_7/multi_head_attention_22/strided_slice/stack", "op": "Const", "attr": {"value": {"tensor": {"dtype": "DT_INT32", "tensorShape": {"dim": [{"size": "1"}]}}}, "dtype": {"type": "DT_INT32"}}}, {"name": "StatefulPartitionedCall/transformer_2/decoder_2/decoder_layer_7/causal_self_attention_7/multi_head_attention_22/strided_slice/stack_1", "op": "Const", "attr": {"value": {"tensor": {"dtype": "DT_INT32", "tensorShape": {"dim": [{"size": "1"}]}}}, "dtype": {"type": "DT_INT32"}}}, {"name": "StatefulPartitionedCall/transformer_2/decoder_2/decoder_layer_7/causal_self_attention_7/multi_head_attention_22/strided_slice/stack_2", "op": "Const", "attr": {"value": {"tensor": {"dtype": "DT_INT32", "tensorShape": {"dim": [{"size": "1"}]}}}, "dtype": {"type": "DT_INT32"}}}, {"name": "StatefulPartitionedCall/transformer_2/decoder_2/decoder_layer_7/causal_self_attention_7/multi_head_attention_22/strided_slice_1/stack", "op": "Const", "attr": {"value": {"tensor": {"dtype": "DT_INT32", "tensorShape": {"dim": [{"size": "1"}]}}}, "dtype": {"type": "DT_INT32"}}}, {"name": "StatefulPartitionedCall/transformer_2/decoder_2/decoder_layer_7/causal_self_attention_7/multi_head_attention_22/strided_slice_1/stack_1", "op": "Const", "attr": {"value": {"tensor": {"dtype": "DT_INT32", "tensorShape": {"dim": [{"size": "1"}]}}}, "dtype": {"type": "DT_INT32"}}}, {"name": "StatefulPartitionedCall/transformer_2/decoder_2/decoder_layer_7/causal_self_attention_7/multi_head_attention_22/strided_slice_1/stack_2", "op": "Const", "attr": {"value": {"tensor": {"dtype": "DT_INT32", "tensorShape": {"dim": [{"size": "1"}]}}}, "dtype": {"type": "DT_INT32"}}}, {"name": "StatefulPartitionedCall/transformer_2/decoder_2/decoder_layer_7/causal_self_attention_7/multi_head_attention_22/ones/Const", "op": "Const", "attr": {"value": {"tensor": {"dtype": "DT_BOOL", "tensorShape": {}}}, "dtype": {"type": "DT_BOOL"}}}, {"name": "StatefulPartitionedCall/transformer_2/decoder_2/decoder_layer_7/causal_self_attention_7/multi_head_attention_22/MatrixBandPart/num_lower", "op": "Const", "attr": {"value": {"tensor": {"dtype": "DT_INT32", "tensorShape": {}}}, "dtype": {"type": "DT_INT32"}}}, {"name": "StatefulPartitionedCall/transformer_2/decoder_2/decoder_layer_7/causal_self_attention_7/multi_head_attention_22/MatrixBandPart/num_upper", "op": "Const", "attr": {"value": {"tensor": {"dtype": "DT_INT32", "tensorShape": {}}}, "dtype": {"type": "DT_INT32"}}}, {"name": "StatefulPartitionedCall/transformer_2/decoder_2/decoder_layer_7/causal_self_attention_7/multi_head_attention_22/ExpandDims/dim", "op": "Const", "attr": {"value": {"tensor": {"dtype": "DT_INT32", "tensorShape": {}}}, "dtype": {"type": "DT_INT32"}}}, {"name": "StatefulPartitionedCall/transformer_2/decoder_2/decoder_layer_7/causal_self_attention_7/multi_head_attention_22/softmax_4/mul/y", "op": "Const", "attr": {"value": {"tensor": {"dtype": "DT_FLOAT", "tensorShape": {}}}, "dtype": {"type": "DT_FLOAT"}}}, {"name": "StatefulPartitionedCall/transformer_2/decoder_2/decoder_layer_6/feed_forward_14/layer_normalization_36/Reshape/shape/0", "op": "Const", "attr": {"value": {"tensor": {"dtype": "DT_INT32", "tensorShape": {}}}, "dtype": {"type": "DT_INT32"}}}, {"name": "StatefulPartitionedCall/transformer_2/decoder_2/decoder_layer_6/feed_forward_14/layer_normalization_36/strided_slice_2/stack", "op": "Const", "attr": {"value": {"tensor": {"dtype": "DT_INT32", "tensorShape": {"dim": [{"size": "1"}]}}}, "dtype": {"type": "DT_INT32"}}}, {"name": "StatefulPartitionedCall/transformer_2/decoder_2/decoder_layer_6/feed_forward_14/layer_normalization_36/strided_slice_2/stack_1", "op": "Const", "attr": {"value": {"tensor": {"dtype": "DT_INT32", "tensorShape": {"dim": [{"size": "1"}]}}}, "dtype": {"type": "DT_INT32"}}}, {"name": "StatefulPartitionedCall/transformer_2/decoder_2/decoder_layer_6/feed_forward_14/layer_normalization_36/strided_slice_2/stack_2", "op": "Const", "attr": {"value": {"tensor": {"dtype": "DT_INT32", "tensorShape": {"dim": [{"size": "1"}]}}}, "dtype": {"type": "DT_INT32"}}}, {"name": "StatefulPartitionedCall/transformer_2/decoder_2/decoder_layer_6/feed_forward_14/layer_normalization_36/Reshape/shape/3", "op": "Const", "attr": {"value": {"tensor": {"dtype": "DT_INT32", "tensorShape": {}}}, "dtype": {"type": "DT_INT32"}}}, {"name": "StatefulPartitionedCall/transformer_2/decoder_2/decoder_layer_6/feed_forward_14/layer_normalization_36/ones/Const", "op": "Const", "attr": {"value": {"tensor": {"dtype": "DT_FLOAT", "tensorShape": {}}}, "dtype": {"type": "DT_FLOAT"}}}, {"name": "StatefulPartitionedCall/transformer_2/decoder_2/decoder_layer_6/feed_forward_14/layer_normalization_36/strided_slice/stack", "op": "Const", "attr": {"value": {"tensor": {"dtype": "DT_INT32", "tensorShape": {"dim": [{"size": "1"}]}}}, "dtype": {"type": "DT_INT32"}}}, {"name": "StatefulPartitionedCall/transformer_2/decoder_2/decoder_layer_6/feed_forward_14/layer_normalization_36/strided_slice/stack_1", "op": "Const", "attr": {"value": {"tensor": {"dtype": "DT_INT32", "tensorShape": {"dim": [{"size": "1"}]}}}, "dtype": {"type": "DT_INT32"}}}, {"name": "StatefulPartitionedCall/transformer_2/decoder_2/decoder_layer_6/feed_forward_14/layer_normalization_36/strided_slice/stack_2", "op": "Const", "attr": {"value": {"tensor": {"dtype": "DT_INT32", "tensorShape": {"dim": [{"size": "1"}]}}}, "dtype": {"type": "DT_INT32"}}}, {"name": "StatefulPartitionedCall/transformer_2/decoder_2/decoder_layer_6/feed_forward_14/layer_normalization_36/strided_slice_1/stack", "op": "Const", "attr": {"value": {"tensor": {"dtype": "DT_INT32", "tensorShape": {"dim": [{"size": "1"}]}}}, "dtype": {"type": "DT_INT32"}}}, {"name": "StatefulPartitionedCall/transformer_2/decoder_2/decoder_layer_6/feed_forward_14/layer_normalization_36/strided_slice_1/stack_1", "op": "Const", "attr": {"value": {"tensor": {"dtype": "DT_INT32", "tensorShape": {"dim": [{"size": "1"}]}}}, "dtype": {"type": "DT_INT32"}}}, {"name": "StatefulPartitionedCall/transformer_2/decoder_2/decoder_layer_6/feed_forward_14/layer_normalization_36/strided_slice_1/stack_2", "op": "Const", "attr": {"value": {"tensor": {"dtype": "DT_INT32", "tensorShape": {"dim": [{"size": "1"}]}}}, "dtype": {"type": "DT_INT32"}}}, {"name": "StatefulPartitionedCall/transformer_2/decoder_2/decoder_layer_6/feed_forward_14/layer_normalization_36/zeros/Const", "op": "Const", "attr": {"value": {"tensor": {"dtype": "DT_FLOAT", "tensorShape": {}}}, "dtype": {"type": "DT_FLOAT"}}}, {"name": "StatefulPartitionedCall/transformer_2/decoder_2/decoder_layer_6/feed_forward_14/layer_normalization_36/Const", "op": "Const", "attr": {"value": {"tensor": {"dtype": "DT_FLOAT", "tensorShape": {"dim": [{}]}}}, "dtype": {"type": "DT_FLOAT"}}}, {"name": "StatefulPartitionedCall/transformer_2/decoder_2/decoder_layer_6/feed_forward_14/layer_normalization_36/Const_1", "op": "Const", "attr": {"value": {"tensor": {"dtype": "DT_FLOAT", "tensorShape": {"dim": [{}]}}}, "dtype": {"type": "DT_FLOAT"}}}, {"name": "StatefulPartitionedCall/transformer_2/decoder_2/decoder_layer_6/feed_forward_14/sequential_14/dense_31/Tensordot/Const", "op": "Const", "attr": {"value": {"tensor": {"dtype": "DT_INT32", "tensorShape": {"dim": [{"size": "1"}]}}}, "dtype": {"type": "DT_INT32"}}}, {"name": "StatefulPartitionedCall/transformer_2/decoder_2/decoder_layer_6/feed_forward_14/sequential_14/dense_31/Tensordot/axes", "op": "Const", "attr": {"value": {"tensor": {"dtype": "DT_INT32", "tensorShape": {"dim": [{"size": "1"}]}}}, "dtype": {"type": "DT_INT32"}}}, {"name": "StatefulPartitionedCall/transformer_2/decoder_2/decoder_layer_6/feed_forward_14/sequential_14/dense_31/Tensordot/GatherV2_1/axis", "op": "Const", "attr": {"value": {"tensor": {"dtype": "DT_INT32", "tensorShape": {}}}, "dtype": {"type": "DT_INT32"}}}, {"name": "StatefulPartitionedCall/transformer_2/decoder_2/decoder_layer_6/feed_forward_14/sequential_14/dense_31/Tensordot/Const_1", "op": "Const", "attr": {"value": {"tensor": {"dtype": "DT_INT32", "tensorShape": {"dim": [{"size": "1"}]}}}, "dtype": {"type": "DT_INT32"}}}, {"name": "StatefulPartitionedCall/transformer_2/decoder_2/decoder_layer_6/feed_forward_14/sequential_14/dense_31/Tensordot/ReadVariableOp", "op": "Const", "attr": {"value": {"tensor": {"dtype": "DT_FLOAT", "tensorShape": {"dim": [{"size": "2048"}, {"size": "128"}]}}}, "dtype": {"type": "DT_FLOAT"}}}, {"name": "StatefulPartitionedCall/transformer_2/decoder_2/decoder_layer_6/feed_forward_14/sequential_14/dense_30/Tensordot/Const", "op": "Const", "attr": {"value": {"tensor": {"dtype": "DT_INT32", "tensorShape": {"dim": [{"size": "1"}]}}}, "dtype": {"type": "DT_INT32"}}}, {"name": "StatefulPartitionedCall/transformer_2/decoder_2/decoder_layer_6/feed_forward_14/sequential_14/dense_30/Tensordot/axes", "op": "Const", "attr": {"value": {"tensor": {"dtype": "DT_INT32", "tensorShape": {"dim": [{"size": "1"}]}}}, "dtype": {"type": "DT_INT32"}}}, {"name": "StatefulPartitionedCall/transformer_2/decoder_2/decoder_layer_6/feed_forward_14/sequential_14/dense_30/Tensordot/GatherV2_1/axis", "op": "Const", "attr": {"value": {"tensor": {"dtype": "DT_INT32", "tensorShape": {}}}, "dtype": {"type": "DT_INT32"}}}, {"name": "StatefulPartitionedCall/transformer_2/decoder_2/decoder_layer_6/feed_forward_14/sequential_14/dense_30/Tensordot/Const_1", "op": "Const", "attr": {"value": {"tensor": {"dtype": "DT_INT32", "tensorShape": {"dim": [{"size": "1"}]}}}, "dtype": {"type": "DT_INT32"}}}, {"name": "StatefulPartitionedCall/transformer_2/decoder_2/decoder_layer_6/feed_forward_14/sequential_14/dense_30/Tensordot/ReadVariableOp", "op": "Const", "attr": {"value": {"tensor": {"dtype": "DT_FLOAT", "tensorShape": {"dim": [{"size": "128"}, {"size": "2048"}]}}}, "dtype": {"type": "DT_FLOAT"}}}, {"name": "StatefulPartitionedCall/transformer_2/decoder_2/decoder_layer_6/cross_attention_6/layer_normalization_35/Reshape/shape/0", "op": "Const", "attr": {"value": {"tensor": {"dtype": "DT_INT32", "tensorShape": {}}}, "dtype": {"type": "DT_INT32"}}}, {"name": "StatefulPartitionedCall/transformer_2/decoder_2/decoder_layer_6/cross_attention_6/layer_normalization_35/strided_slice_2/stack", "op": "Const", "attr": {"value": {"tensor": {"dtype": "DT_INT32", "tensorShape": {"dim": [{"size": "1"}]}}}, "dtype": {"type": "DT_INT32"}}}, {"name": "StatefulPartitionedCall/transformer_2/decoder_2/decoder_layer_6/cross_attention_6/layer_normalization_35/strided_slice_2/stack_1", "op": "Const", "attr": {"value": {"tensor": {"dtype": "DT_INT32", "tensorShape": {"dim": [{"size": "1"}]}}}, "dtype": {"type": "DT_INT32"}}}, {"name": "StatefulPartitionedCall/transformer_2/decoder_2/decoder_layer_6/cross_attention_6/layer_normalization_35/strided_slice_2/stack_2", "op": "Const", "attr": {"value": {"tensor": {"dtype": "DT_INT32", "tensorShape": {"dim": [{"size": "1"}]}}}, "dtype": {"type": "DT_INT32"}}}, {"name": "StatefulPartitionedCall/transformer_2/decoder_2/decoder_layer_6/cross_attention_6/layer_normalization_35/Reshape/shape/3", "op": "Const", "attr": {"value": {"tensor": {"dtype": "DT_INT32", "tensorShape": {}}}, "dtype": {"type": "DT_INT32"}}}, {"name": "StatefulPartitionedCall/transformer_2/decoder_2/decoder_layer_6/cross_attention_6/layer_normalization_35/ones/Const", "op": "Const", "attr": {"value": {"tensor": {"dtype": "DT_FLOAT", "tensorShape": {}}}, "dtype": {"type": "DT_FLOAT"}}}, {"name": "StatefulPartitionedCall/transformer_2/decoder_2/decoder_layer_6/cross_attention_6/layer_normalization_35/strided_slice/stack", "op": "Const", "attr": {"value": {"tensor": {"dtype": "DT_INT32", "tensorShape": {"dim": [{"size": "1"}]}}}, "dtype": {"type": "DT_INT32"}}}, {"name": "StatefulPartitionedCall/transformer_2/decoder_2/decoder_layer_6/cross_attention_6/layer_normalization_35/strided_slice/stack_1", "op": "Const", "attr": {"value": {"tensor": {"dtype": "DT_INT32", "tensorShape": {"dim": [{"size": "1"}]}}}, "dtype": {"type": "DT_INT32"}}}, {"name": "StatefulPartitionedCall/transformer_2/decoder_2/decoder_layer_6/cross_attention_6/layer_normalization_35/strided_slice/stack_2", "op": "Const", "attr": {"value": {"tensor": {"dtype": "DT_INT32", "tensorShape": {"dim": [{"size": "1"}]}}}, "dtype": {"type": "DT_INT32"}}}, {"name": "StatefulPartitionedCall/transformer_2/decoder_2/decoder_layer_6/cross_attention_6/layer_normalization_35/strided_slice_1/stack", "op": "Const", "attr": {"value": {"tensor": {"dtype": "DT_INT32", "tensorShape": {"dim": [{"size": "1"}]}}}, "dtype": {"type": "DT_INT32"}}}, {"name": "StatefulPartitionedCall/transformer_2/decoder_2/decoder_layer_6/cross_attention_6/layer_normalization_35/strided_slice_1/stack_1", "op": "Const", "attr": {"value": {"tensor": {"dtype": "DT_INT32", "tensorShape": {"dim": [{"size": "1"}]}}}, "dtype": {"type": "DT_INT32"}}}, {"name": "StatefulPartitionedCall/transformer_2/decoder_2/decoder_layer_6/cross_attention_6/layer_normalization_35/strided_slice_1/stack_2", "op": "Const", "attr": {"value": {"tensor": {"dtype": "DT_INT32", "tensorShape": {"dim": [{"size": "1"}]}}}, "dtype": {"type": "DT_INT32"}}}, {"name": "StatefulPartitionedCall/transformer_2/decoder_2/decoder_layer_6/cross_attention_6/layer_normalization_35/zeros/Const", "op": "Const", "attr": {"value": {"tensor": {"dtype": "DT_FLOAT", "tensorShape": {}}}, "dtype": {"type": "DT_FLOAT"}}}, {"name": "StatefulPartitionedCall/transformer_2/decoder_2/decoder_layer_6/cross_attention_6/layer_normalization_35/Const", "op": "Const", "attr": {"value": {"tensor": {"dtype": "DT_FLOAT", "tensorShape": {"dim": [{}]}}}, "dtype": {"type": "DT_FLOAT"}}}, {"name": "StatefulPartitionedCall/transformer_2/decoder_2/decoder_layer_6/cross_attention_6/layer_normalization_35/Const_1", "op": "Const", "attr": {"value": {"tensor": {"dtype": "DT_FLOAT", "tensorShape": {"dim": [{}]}}}, "dtype": {"type": "DT_FLOAT"}}}, {"name": "StatefulPartitionedCall/transformer_2/decoder_2/decoder_layer_6/cross_attention_6/multi_head_attention_21/key/einsum/Einsum/ReadVariableOp", "op": "Const", "attr": {"value": {"tensor": {"dtype": "DT_FLOAT", "tensorShape": {"dim": [{"size": "128"}, {"size": "8"}, {"size": "128"}]}}}, "dtype": {"type": "DT_FLOAT"}}}, {"name": "StatefulPartitionedCall/transformer_2/decoder_2/decoder_layer_6/cross_attention_6/multi_head_attention_21/key/add/ReadVariableOp", "op": "Const", "attr": {"value": {"tensor": {"dtype": "DT_FLOAT", "tensorShape": {"dim": [{"size": "8"}, {"size": "128"}]}}}, "dtype": {"type": "DT_FLOAT"}}}, {"name": "StatefulPartitionedCall/transformer_2/decoder_2/decoder_layer_6/causal_self_attention_6/layer_normalization_34/Reshape/shape/0", "op": "Const", "attr": {"value": {"tensor": {"dtype": "DT_INT32", "tensorShape": {}}}, "dtype": {"type": "DT_INT32"}}}, {"name": "StatefulPartitionedCall/transformer_2/decoder_2/decoder_layer_6/causal_self_attention_6/layer_normalization_34/strided_slice_2/stack", "op": "Const", "attr": {"value": {"tensor": {"dtype": "DT_INT32", "tensorShape": {"dim": [{"size": "1"}]}}}, "dtype": {"type": "DT_INT32"}}}, {"name": "StatefulPartitionedCall/transformer_2/decoder_2/decoder_layer_6/causal_self_attention_6/layer_normalization_34/strided_slice_2/stack_1", "op": "Const", "attr": {"value": {"tensor": {"dtype": "DT_INT32", "tensorShape": {"dim": [{"size": "1"}]}}}, "dtype": {"type": "DT_INT32"}}}, {"name": "StatefulPartitionedCall/transformer_2/decoder_2/decoder_layer_6/causal_self_attention_6/layer_normalization_34/strided_slice_2/stack_2", "op": "Const", "attr": {"value": {"tensor": {"dtype": "DT_INT32", "tensorShape": {"dim": [{"size": "1"}]}}}, "dtype": {"type": "DT_INT32"}}}, {"name": "StatefulPartitionedCall/transformer_2/decoder_2/decoder_layer_6/causal_self_attention_6/layer_normalization_34/Reshape/shape/3", "op": "Const", "attr": {"value": {"tensor": {"dtype": "DT_INT32", "tensorShape": {}}}, "dtype": {"type": "DT_INT32"}}}, {"name": "StatefulPartitionedCall/transformer_2/decoder_2/decoder_layer_6/causal_self_attention_6/layer_normalization_34/ones/Const", "op": "Const", "attr": {"value": {"tensor": {"dtype": "DT_FLOAT", "tensorShape": {}}}, "dtype": {"type": "DT_FLOAT"}}}, {"name": "StatefulPartitionedCall/transformer_2/decoder_2/decoder_layer_6/causal_self_attention_6/layer_normalization_34/strided_slice/stack", "op": "Const", "attr": {"value": {"tensor": {"dtype": "DT_INT32", "tensorShape": {"dim": [{"size": "1"}]}}}, "dtype": {"type": "DT_INT32"}}}, {"name": "StatefulPartitionedCall/transformer_2/decoder_2/decoder_layer_6/causal_self_attention_6/layer_normalization_34/strided_slice/stack_1", "op": "Const", "attr": {"value": {"tensor": {"dtype": "DT_INT32", "tensorShape": {"dim": [{"size": "1"}]}}}, "dtype": {"type": "DT_INT32"}}}, {"name": "StatefulPartitionedCall/transformer_2/decoder_2/decoder_layer_6/causal_self_attention_6/layer_normalization_34/strided_slice/stack_2", "op": "Const", "attr": {"value": {"tensor": {"dtype": "DT_INT32", "tensorShape": {"dim": [{"size": "1"}]}}}, "dtype": {"type": "DT_INT32"}}}, {"name": "StatefulPartitionedCall/transformer_2/decoder_2/decoder_layer_6/causal_self_attention_6/layer_normalization_34/strided_slice_1/stack", "op": "Const", "attr": {"value": {"tensor": {"dtype": "DT_INT32", "tensorShape": {"dim": [{"size": "1"}]}}}, "dtype": {"type": "DT_INT32"}}}, {"name": "StatefulPartitionedCall/transformer_2/decoder_2/decoder_layer_6/causal_self_attention_6/layer_normalization_34/strided_slice_1/stack_1", "op": "Const", "attr": {"value": {"tensor": {"dtype": "DT_INT32", "tensorShape": {"dim": [{"size": "1"}]}}}, "dtype": {"type": "DT_INT32"}}}, {"name": "StatefulPartitionedCall/transformer_2/decoder_2/decoder_layer_6/causal_self_attention_6/layer_normalization_34/strided_slice_1/stack_2", "op": "Const", "attr": {"value": {"tensor": {"dtype": "DT_INT32", "tensorShape": {"dim": [{"size": "1"}]}}}, "dtype": {"type": "DT_INT32"}}}, {"name": "StatefulPartitionedCall/transformer_2/decoder_2/decoder_layer_6/causal_self_attention_6/layer_normalization_34/zeros/Const", "op": "Const", "attr": {"value": {"tensor": {"dtype": "DT_FLOAT", "tensorShape": {}}}, "dtype": {"type": "DT_FLOAT"}}}, {"name": "StatefulPartitionedCall/transformer_2/decoder_2/decoder_layer_6/causal_self_attention_6/layer_normalization_34/Const", "op": "Const", "attr": {"value": {"tensor": {"dtype": "DT_FLOAT", "tensorShape": {"dim": [{}]}}}, "dtype": {"type": "DT_FLOAT"}}}, {"name": "StatefulPartitionedCall/transformer_2/decoder_2/decoder_layer_6/causal_self_attention_6/layer_normalization_34/Const_1", "op": "Const", "attr": {"value": {"tensor": {"dtype": "DT_FLOAT", "tensorShape": {"dim": [{}]}}}, "dtype": {"type": "DT_FLOAT"}}}, {"name": "StatefulPartitionedCall/transformer_2/decoder_2/decoder_layer_6/causal_self_attention_6/multi_head_attention_20/key/einsum/Einsum/ReadVariableOp", "op": "Const", "attr": {"value": {"tensor": {"dtype": "DT_FLOAT", "tensorShape": {"dim": [{"size": "128"}, {"size": "8"}, {"size": "128"}]}}}, "dtype": {"type": "DT_FLOAT"}}}, {"name": "StatefulPartitionedCall/transformer_2/decoder_2/decoder_layer_6/causal_self_attention_6/multi_head_attention_20/key/add/ReadVariableOp", "op": "Const", "attr": {"value": {"tensor": {"dtype": "DT_FLOAT", "tensorShape": {"dim": [{"size": "8"}, {"size": "128"}]}}}, "dtype": {"type": "DT_FLOAT"}}}, {"name": "StatefulPartitionedCall/transformer_2/decoder_2/decoder_layer_6/causal_self_attention_6/multi_head_attention_20/query/einsum/Einsum/ReadVariableOp", "op": "Const", "attr": {"value": {"tensor": {"dtype": "DT_FLOAT", "tensorShape": {"dim": [{"size": "128"}, {"size": "8"}, {"size": "128"}]}}}, "dtype": {"type": "DT_FLOAT"}}}, {"name": "StatefulPartitionedCall/transformer_2/decoder_2/decoder_layer_6/causal_self_attention_6/multi_head_attention_20/query/add/ReadVariableOp", "op": "Const", "attr": {"value": {"tensor": {"dtype": "DT_FLOAT", "tensorShape": {"dim": [{"size": "8"}, {"size": "128"}]}}}, "dtype": {"type": "DT_FLOAT"}}}, {"name": "StatefulPartitionedCall/transformer_2/decoder_2/decoder_layer_6/causal_self_attention_6/multi_head_attention_20/Mul/y", "op": "Const", "attr": {"value": {"tensor": {"dtype": "DT_FLOAT", "tensorShape": {}}}, "dtype": {"type": "DT_FLOAT"}}}, {"name": "StatefulPartitionedCall/transformer_2/decoder_2/decoder_layer_6/causal_self_attention_6/multi_head_attention_20/softmax_2/sub/x", "op": "Const", "attr": {"value": {"tensor": {"dtype": "DT_FLOAT", "tensorShape": {}}}, "dtype": {"type": "DT_FLOAT"}}}, {"name": "StatefulPartitionedCall/transformer_2/decoder_2/decoder_layer_6/causal_self_attention_6/multi_head_attention_20/ones/packed/0", "op": "Const", "attr": {"value": {"tensor": {"dtype": "DT_INT32", "tensorShape": {}}}, "dtype": {"type": "DT_INT32"}}}, {"name": "StatefulPartitionedCall/transformer_2/decoder_2/decoder_layer_6/causal_self_attention_6/multi_head_attention_20/strided_slice/stack", "op": "Const", "attr": {"value": {"tensor": {"dtype": "DT_INT32", "tensorShape": {"dim": [{"size": "1"}]}}}, "dtype": {"type": "DT_INT32"}}}, {"name": "StatefulPartitionedCall/transformer_2/decoder_2/decoder_layer_6/causal_self_attention_6/multi_head_attention_20/strided_slice/stack_1", "op": "Const", "attr": {"value": {"tensor": {"dtype": "DT_INT32", "tensorShape": {"dim": [{"size": "1"}]}}}, "dtype": {"type": "DT_INT32"}}}, {"name": "StatefulPartitionedCall/transformer_2/decoder_2/decoder_layer_6/causal_self_attention_6/multi_head_attention_20/strided_slice/stack_2", "op": "Const", "attr": {"value": {"tensor": {"dtype": "DT_INT32", "tensorShape": {"dim": [{"size": "1"}]}}}, "dtype": {"type": "DT_INT32"}}}, {"name": "StatefulPartitionedCall/transformer_2/decoder_2/decoder_layer_6/causal_self_attention_6/multi_head_attention_20/strided_slice_1/stack", "op": "Const", "attr": {"value": {"tensor": {"dtype": "DT_INT32", "tensorShape": {"dim": [{"size": "1"}]}}}, "dtype": {"type": "DT_INT32"}}}, {"name": "StatefulPartitionedCall/transformer_2/decoder_2/decoder_layer_6/causal_self_attention_6/multi_head_attention_20/strided_slice_1/stack_1", "op": "Const", "attr": {"value": {"tensor": {"dtype": "DT_INT32", "tensorShape": {"dim": [{"size": "1"}]}}}, "dtype": {"type": "DT_INT32"}}}, {"name": "StatefulPartitionedCall/transformer_2/decoder_2/decoder_layer_6/causal_self_attention_6/multi_head_attention_20/strided_slice_1/stack_2", "op": "Const", "attr": {"value": {"tensor": {"dtype": "DT_INT32", "tensorShape": {"dim": [{"size": "1"}]}}}, "dtype": {"type": "DT_INT32"}}}, {"name": "StatefulPartitionedCall/transformer_2/decoder_2/decoder_layer_6/causal_self_attention_6/multi_head_attention_20/ones/Const", "op": "Const", "attr": {"value": {"tensor": {"dtype": "DT_BOOL", "tensorShape": {}}}, "dtype": {"type": "DT_BOOL"}}}, {"name": "StatefulPartitionedCall/transformer_2/decoder_2/decoder_layer_6/causal_self_attention_6/multi_head_attention_20/MatrixBandPart/num_lower", "op": "Const", "attr": {"value": {"tensor": {"dtype": "DT_INT32", "tensorShape": {}}}, "dtype": {"type": "DT_INT32"}}}, {"name": "StatefulPartitionedCall/transformer_2/decoder_2/decoder_layer_6/causal_self_attention_6/multi_head_attention_20/MatrixBandPart/num_upper", "op": "Const", "attr": {"value": {"tensor": {"dtype": "DT_INT32", "tensorShape": {}}}, "dtype": {"type": "DT_INT32"}}}, {"name": "StatefulPartitionedCall/transformer_2/decoder_2/decoder_layer_6/causal_self_attention_6/multi_head_attention_20/ExpandDims/dim", "op": "Const", "attr": {"value": {"tensor": {"dtype": "DT_INT32", "tensorShape": {}}}, "dtype": {"type": "DT_INT32"}}}, {"name": "StatefulPartitionedCall/transformer_2/decoder_2/decoder_layer_6/causal_self_attention_6/multi_head_attention_20/softmax_2/mul/y", "op": "Const", "attr": {"value": {"tensor": {"dtype": "DT_FLOAT", "tensorShape": {}}}, "dtype": {"type": "DT_FLOAT"}}}, {"name": "unknown_33", "op": "Const", "attr": {"value": {"tensor": {"dtype": "DT_FLOAT", "tensorShape": {"dim": [{"size": "1000"}, {"size": "128"}]}}}, "dtype": {"type": "DT_FLOAT"}}}, {"name": "StatefulPartitionedCall/transformer_2/decoder_2/positional_embedding_5/embedding_5/embedding_lookup/axis", "op": "Const", "attr": {"value": {"tensor": {"dtype": "DT_INT32", "tensorShape": {}}}, "dtype": {"type": "DT_INT32"}}}, {"name": "StatefulPartitionedCall/transformer_2/decoder_2/positional_embedding_5/Sqrt", "op": "Const", "attr": {"value": {"tensor": {"dtype": "DT_FLOAT", "tensorShape": {}}}, "dtype": {"type": "DT_FLOAT"}}}, {"name": "unknown_34", "op": "Const", "attr": {"value": {"tensor": {"dtype": "DT_FLOAT", "tensorShape": {"dim": [{"size": "2048"}, {"size": "128"}]}}}, "dtype": {"type": "DT_FLOAT"}}}, {"name": "StatefulPartitionedCall/transformer_2/decoder_2/positional_embedding_5/strided_slice_1/stack", "op": "Const", "attr": {"value": {"tensor": {"dtype": "DT_INT32", "tensorShape": {"dim": [{"size": "3"}]}}}, "dtype": {"type": "DT_INT32"}}}, {"name": "StatefulPartitionedCall/transformer_2/decoder_2/positional_embedding_5/strided_slice_1/stack_1/0", "op": "Const", "attr": {"value": {"tensor": {"dtype": "DT_INT32", "tensorShape": {}}}, "dtype": {"type": "DT_INT32"}}}, {"name": "StatefulPartitionedCall/transformer_2/decoder_2/positional_embedding_5/strided_slice/stack", "op": "Const", "attr": {"value": {"tensor": {"dtype": "DT_INT32", "tensorShape": {"dim": [{"size": "1"}]}}}, "dtype": {"type": "DT_INT32"}}}, {"name": "StatefulPartitionedCall/transformer_2/decoder_2/positional_embedding_5/strided_slice/stack_1", "op": "Const", "attr": {"value": {"tensor": {"dtype": "DT_INT32", "tensorShape": {"dim": [{"size": "1"}]}}}, "dtype": {"type": "DT_INT32"}}}, {"name": "StatefulPartitionedCall/transformer_2/decoder_2/positional_embedding_5/strided_slice/stack_2", "op": "Const", "attr": {"value": {"tensor": {"dtype": "DT_INT32", "tensorShape": {"dim": [{"size": "1"}]}}}, "dtype": {"type": "DT_INT32"}}}, {"name": "StatefulPartitionedCall/transformer_2/decoder_2/positional_embedding_5/strided_slice_1/stack_1/2", "op": "Const", "attr": {"value": {"tensor": {"dtype": "DT_INT32", "tensorShape": {}}}, "dtype": {"type": "DT_INT32"}}}, {"name": "StatefulPartitionedCall/transformer_2/decoder_2/positional_embedding_5/strided_slice_1/stack_2", "op": "Const", "attr": {"value": {"tensor": {"dtype": "DT_INT32", "tensorShape": {"dim": [{"size": "3"}]}}}, "dtype": {"type": "DT_INT32"}}}, {"name": "StatefulPartitionedCall/transformer_2/decoder_2/decoder_layer_6/causal_self_attention_6/multi_head_attention_20/value/einsum/Einsum/ReadVariableOp", "op": "Const", "attr": {"value": {"tensor": {"dtype": "DT_FLOAT", "tensorShape": {"dim": [{"size": "128"}, {"size": "8"}, {"size": "128"}]}}}, "dtype": {"type": "DT_FLOAT"}}}, {"name": "StatefulPartitionedCall/transformer_2/decoder_2/decoder_layer_6/causal_self_attention_6/multi_head_attention_20/value/add/ReadVariableOp", "op": "Const", "attr": {"value": {"tensor": {"dtype": "DT_FLOAT", "tensorShape": {"dim": [{"size": "8"}, {"size": "128"}]}}}, "dtype": {"type": "DT_FLOAT"}}}, {"name": "StatefulPartitionedCall/transformer_2/decoder_2/decoder_layer_6/causal_self_attention_6/multi_head_attention_20/attention_output/einsum/Einsum/ReadVariableOp", "op": "Const", "attr": {"value": {"tensor": {"dtype": "DT_FLOAT", "tensorShape": {"dim": [{"size": "8"}, {"size": "128"}, {"size": "128"}]}}}, "dtype": {"type": "DT_FLOAT"}}}, {"name": "StatefulPartitionedCall/transformer_2/decoder_2/decoder_layer_6/causal_self_attention_6/multi_head_attention_20/attention_output/add/ReadVariableOp", "op": "Const", "attr": {"value": {"tensor": {"dtype": "DT_FLOAT", "tensorShape": {"dim": [{"size": "128"}]}}}, "dtype": {"type": "DT_FLOAT"}}}, {"name": "StatefulPartitionedCall/transformer_2/decoder_2/decoder_layer_6/causal_self_attention_6/layer_normalization_34/mul_3/ReadVariableOp", "op": "Const", "attr": {"value": {"tensor": {"dtype": "DT_FLOAT", "tensorShape": {"dim": [{"size": "128"}]}}}, "dtype": {"type": "DT_FLOAT"}}}, {"name": "StatefulPartitionedCall/transformer_2/decoder_2/decoder_layer_6/causal_self_attention_6/layer_normalization_34/add/ReadVariableOp", "op": "Const", "attr": {"value": {"tensor": {"dtype": "DT_FLOAT", "tensorShape": {"dim": [{"size": "128"}]}}}, "dtype": {"type": "DT_FLOAT"}}}, {"name": "StatefulPartitionedCall/transformer_2/decoder_2/decoder_layer_6/cross_attention_6/multi_head_attention_21/query/einsum/Einsum/ReadVariableOp", "op": "Const", "attr": {"value": {"tensor": {"dtype": "DT_FLOAT", "tensorShape": {"dim": [{"size": "128"}, {"size": "8"}, {"size": "128"}]}}}, "dtype": {"type": "DT_FLOAT"}}}, {"name": "StatefulPartitionedCall/transformer_2/decoder_2/decoder_layer_6/cross_attention_6/multi_head_attention_21/query/add/ReadVariableOp", "op": "Const", "attr": {"value": {"tensor": {"dtype": "DT_FLOAT", "tensorShape": {"dim": [{"size": "8"}, {"size": "128"}]}}}, "dtype": {"type": "DT_FLOAT"}}}, {"name": "StatefulPartitionedCall/transformer_2/decoder_2/decoder_layer_6/cross_attention_6/multi_head_attention_21/Mul/y", "op": "Const", "attr": {"value": {"tensor": {"dtype": "DT_FLOAT", "tensorShape": {}}}, "dtype": {"type": "DT_FLOAT"}}}, {"name": "StatefulPartitionedCall/transformer_2/decoder_2/decoder_layer_6/cross_attention_6/multi_head_attention_21/value/einsum/Einsum/ReadVariableOp", "op": "Const", "attr": {"value": {"tensor": {"dtype": "DT_FLOAT", "tensorShape": {"dim": [{"size": "128"}, {"size": "8"}, {"size": "128"}]}}}, "dtype": {"type": "DT_FLOAT"}}}, {"name": "StatefulPartitionedCall/transformer_2/decoder_2/decoder_layer_6/cross_attention_6/multi_head_attention_21/value/add/ReadVariableOp", "op": "Const", "attr": {"value": {"tensor": {"dtype": "DT_FLOAT", "tensorShape": {"dim": [{"size": "8"}, {"size": "128"}]}}}, "dtype": {"type": "DT_FLOAT"}}}, {"name": "StatefulPartitionedCall/transformer_2/decoder_2/decoder_layer_6/cross_attention_6/multi_head_attention_21/attention_output/einsum/Einsum/ReadVariableOp", "op": "Const", "attr": {"value": {"tensor": {"dtype": "DT_FLOAT", "tensorShape": {"dim": [{"size": "8"}, {"size": "128"}, {"size": "128"}]}}}, "dtype": {"type": "DT_FLOAT"}}}, {"name": "StatefulPartitionedCall/transformer_2/decoder_2/decoder_layer_6/cross_attention_6/multi_head_attention_21/attention_output/add/ReadVariableOp", "op": "Const", "attr": {"value": {"tensor": {"dtype": "DT_FLOAT", "tensorShape": {"dim": [{"size": "128"}]}}}, "dtype": {"type": "DT_FLOAT"}}}, {"name": "StatefulPartitionedCall/transformer_2/decoder_2/decoder_layer_6/cross_attention_6/layer_normalization_35/mul_3/ReadVariableOp", "op": "Const", "attr": {"value": {"tensor": {"dtype": "DT_FLOAT", "tensorShape": {"dim": [{"size": "128"}]}}}, "dtype": {"type": "DT_FLOAT"}}}, {"name": "StatefulPartitionedCall/transformer_2/decoder_2/decoder_layer_6/cross_attention_6/layer_normalization_35/add/ReadVariableOp", "op": "Const", "attr": {"value": {"tensor": {"dtype": "DT_FLOAT", "tensorShape": {"dim": [{"size": "128"}]}}}, "dtype": {"type": "DT_FLOAT"}}}, {"name": "StatefulPartitionedCall/transformer_2/decoder_2/decoder_layer_6/feed_forward_14/sequential_14/dense_30/Tensordot/free", "op": "Const", "attr": {"value": {"tensor": {"dtype": "DT_INT32", "tensorShape": {"dim": [{"size": "2"}]}}}, "dtype": {"type": "DT_INT32"}}}, {"name": "StatefulPartitionedCall/transformer_2/decoder_2/decoder_layer_6/feed_forward_14/sequential_14/dense_30/Tensordot/GatherV2/axis", "op": "Const", "attr": {"value": {"tensor": {"dtype": "DT_INT32", "tensorShape": {}}}, "dtype": {"type": "DT_INT32"}}}, {"name": "StatefulPartitionedCall/transformer_2/decoder_2/decoder_layer_6/feed_forward_14/sequential_14/dense_30/Tensordot/Const_2", "op": "Const", "attr": {"value": {"tensor": {"dtype": "DT_INT32", "tensorShape": {"dim": [{"size": "1"}]}}}, "dtype": {"type": "DT_INT32"}}}, {"name": "StatefulPartitionedCall/transformer_2/decoder_2/decoder_layer_6/feed_forward_14/sequential_14/dense_30/Tensordot/concat_1/axis", "op": "Const", "attr": {"value": {"tensor": {"dtype": "DT_INT32", "tensorShape": {}}}, "dtype": {"type": "DT_INT32"}}}, {"name": "StatefulPartitionedCall/transformer_2/decoder_2/decoder_layer_6/feed_forward_14/sequential_14/dense_30/BiasAdd/ReadVariableOp", "op": "Const", "attr": {"value": {"tensor": {"dtype": "DT_FLOAT", "tensorShape": {"dim": [{"size": "2048"}]}}}, "dtype": {"type": "DT_FLOAT"}}}, {"name": "StatefulPartitionedCall/transformer_2/decoder_2/decoder_layer_6/feed_forward_14/sequential_14/dense_31/Tensordot/free", "op": "Const", "attr": {"value": {"tensor": {"dtype": "DT_INT32", "tensorShape": {"dim": [{"size": "2"}]}}}, "dtype": {"type": "DT_INT32"}}}, {"name": "StatefulPartitionedCall/transformer_2/decoder_2/decoder_layer_6/feed_forward_14/sequential_14/dense_31/Tensordot/GatherV2/axis", "op": "Const", "attr": {"value": {"tensor": {"dtype": "DT_INT32", "tensorShape": {}}}, "dtype": {"type": "DT_INT32"}}}, {"name": "StatefulPartitionedCall/transformer_2/decoder_2/decoder_layer_6/feed_forward_14/sequential_14/dense_31/Tensordot/Const_2", "op": "Const", "attr": {"value": {"tensor": {"dtype": "DT_INT32", "tensorShape": {"dim": [{"size": "1"}]}}}, "dtype": {"type": "DT_INT32"}}}, {"name": "StatefulPartitionedCall/transformer_2/decoder_2/decoder_layer_6/feed_forward_14/sequential_14/dense_31/Tensordot/concat_1/axis", "op": "Const", "attr": {"value": {"tensor": {"dtype": "DT_INT32", "tensorShape": {}}}, "dtype": {"type": "DT_INT32"}}}, {"name": "StatefulPartitionedCall/transformer_2/decoder_2/decoder_layer_6/feed_forward_14/sequential_14/dense_31/BiasAdd/ReadVariableOp", "op": "Const", "attr": {"value": {"tensor": {"dtype": "DT_FLOAT", "tensorShape": {"dim": [{"size": "128"}]}}}, "dtype": {"type": "DT_FLOAT"}}}, {"name": "StatefulPartitionedCall/transformer_2/decoder_2/decoder_layer_6/feed_forward_14/layer_normalization_36/mul_3/ReadVariableOp", "op": "Const", "attr": {"value": {"tensor": {"dtype": "DT_FLOAT", "tensorShape": {"dim": [{"size": "128"}]}}}, "dtype": {"type": "DT_FLOAT"}}}, {"name": "StatefulPartitionedCall/transformer_2/decoder_2/decoder_layer_6/feed_forward_14/layer_normalization_36/add/ReadVariableOp", "op": "Const", "attr": {"value": {"tensor": {"dtype": "DT_FLOAT", "tensorShape": {"dim": [{"size": "128"}]}}}, "dtype": {"type": "DT_FLOAT"}}}, {"name": "StatefulPartitionedCall/transformer_2/decoder_2/decoder_layer_7/causal_self_attention_7/multi_head_attention_22/value/einsum/Einsum/ReadVariableOp", "op": "Const", "attr": {"value": {"tensor": {"dtype": "DT_FLOAT", "tensorShape": {"dim": [{"size": "128"}, {"size": "8"}, {"size": "128"}]}}}, "dtype": {"type": "DT_FLOAT"}}}, {"name": "StatefulPartitionedCall/transformer_2/decoder_2/decoder_layer_7/causal_self_attention_7/multi_head_attention_22/value/add/ReadVariableOp", "op": "Const", "attr": {"value": {"tensor": {"dtype": "DT_FLOAT", "tensorShape": {"dim": [{"size": "8"}, {"size": "128"}]}}}, "dtype": {"type": "DT_FLOAT"}}}, {"name": "StatefulPartitionedCall/transformer_2/decoder_2/decoder_layer_7/causal_self_attention_7/multi_head_attention_22/attention_output/einsum/Einsum/ReadVariableOp", "op": "Const", "attr": {"value": {"tensor": {"dtype": "DT_FLOAT", "tensorShape": {"dim": [{"size": "8"}, {"size": "128"}, {"size": "128"}]}}}, "dtype": {"type": "DT_FLOAT"}}}, {"name": "StatefulPartitionedCall/transformer_2/decoder_2/decoder_layer_7/causal_self_attention_7/multi_head_attention_22/attention_output/add/ReadVariableOp", "op": "Const", "attr": {"value": {"tensor": {"dtype": "DT_FLOAT", "tensorShape": {"dim": [{"size": "128"}]}}}, "dtype": {"type": "DT_FLOAT"}}}, {"name": "StatefulPartitionedCall/transformer_2/decoder_2/decoder_layer_7/causal_self_attention_7/layer_normalization_37/mul_3/ReadVariableOp", "op": "Const", "attr": {"value": {"tensor": {"dtype": "DT_FLOAT", "tensorShape": {"dim": [{"size": "128"}]}}}, "dtype": {"type": "DT_FLOAT"}}}, {"name": "StatefulPartitionedCall/transformer_2/decoder_2/decoder_layer_7/causal_self_attention_7/layer_normalization_37/add/ReadVariableOp", "op": "Const", "attr": {"value": {"tensor": {"dtype": "DT_FLOAT", "tensorShape": {"dim": [{"size": "128"}]}}}, "dtype": {"type": "DT_FLOAT"}}}, {"name": "StatefulPartitionedCall/transformer_2/decoder_2/decoder_layer_7/cross_attention_7/multi_head_attention_23/query/einsum/Einsum/ReadVariableOp", "op": "Const", "attr": {"value": {"tensor": {"dtype": "DT_FLOAT", "tensorShape": {"dim": [{"size": "128"}, {"size": "8"}, {"size": "128"}]}}}, "dtype": {"type": "DT_FLOAT"}}}, {"name": "StatefulPartitionedCall/transformer_2/decoder_2/decoder_layer_7/cross_attention_7/multi_head_attention_23/query/add/ReadVariableOp", "op": "Const", "attr": {"value": {"tensor": {"dtype": "DT_FLOAT", "tensorShape": {"dim": [{"size": "8"}, {"size": "128"}]}}}, "dtype": {"type": "DT_FLOAT"}}}, {"name": "StatefulPartitionedCall/transformer_2/decoder_2/decoder_layer_7/cross_attention_7/multi_head_attention_23/Mul/y", "op": "Const", "attr": {"value": {"tensor": {"dtype": "DT_FLOAT", "tensorShape": {}}}, "dtype": {"type": "DT_FLOAT"}}}, {"name": "StatefulPartitionedCall/transformer_2/encoder_2/encoder_layer_7/feed_forward_13/layer_normalization_33/Reshape/shape/0", "op": "Const", "attr": {"value": {"tensor": {"dtype": "DT_INT32", "tensorShape": {}}}, "dtype": {"type": "DT_INT32"}}}, {"name": "StatefulPartitionedCall/transformer_2/encoder_2/encoder_layer_7/feed_forward_13/layer_normalization_33/strided_slice_2/stack", "op": "Const", "attr": {"value": {"tensor": {"dtype": "DT_INT32", "tensorShape": {"dim": [{"size": "1"}]}}}, "dtype": {"type": "DT_INT32"}}}, {"name": "StatefulPartitionedCall/transformer_2/encoder_2/encoder_layer_7/feed_forward_13/layer_normalization_33/strided_slice_2/stack_1", "op": "Const", "attr": {"value": {"tensor": {"dtype": "DT_INT32", "tensorShape": {"dim": [{"size": "1"}]}}}, "dtype": {"type": "DT_INT32"}}}, {"name": "StatefulPartitionedCall/transformer_2/encoder_2/encoder_layer_7/feed_forward_13/layer_normalization_33/strided_slice_2/stack_2", "op": "Const", "attr": {"value": {"tensor": {"dtype": "DT_INT32", "tensorShape": {"dim": [{"size": "1"}]}}}, "dtype": {"type": "DT_INT32"}}}, {"name": "StatefulPartitionedCall/transformer_2/encoder_2/encoder_layer_7/feed_forward_13/layer_normalization_33/Reshape/shape/3", "op": "Const", "attr": {"value": {"tensor": {"dtype": "DT_INT32", "tensorShape": {}}}, "dtype": {"type": "DT_INT32"}}}, {"name": "StatefulPartitionedCall/transformer_2/encoder_2/encoder_layer_7/feed_forward_13/layer_normalization_33/ones/Const", "op": "Const", "attr": {"value": {"tensor": {"dtype": "DT_FLOAT", "tensorShape": {}}}, "dtype": {"type": "DT_FLOAT"}}}, {"name": "StatefulPartitionedCall/transformer_2/encoder_2/encoder_layer_7/feed_forward_13/layer_normalization_33/strided_slice/stack", "op": "Const", "attr": {"value": {"tensor": {"dtype": "DT_INT32", "tensorShape": {"dim": [{"size": "1"}]}}}, "dtype": {"type": "DT_INT32"}}}, {"name": "StatefulPartitionedCall/transformer_2/encoder_2/encoder_layer_7/feed_forward_13/layer_normalization_33/strided_slice/stack_1", "op": "Const", "attr": {"value": {"tensor": {"dtype": "DT_INT32", "tensorShape": {"dim": [{"size": "1"}]}}}, "dtype": {"type": "DT_INT32"}}}, {"name": "StatefulPartitionedCall/transformer_2/encoder_2/encoder_layer_7/feed_forward_13/layer_normalization_33/strided_slice/stack_2", "op": "Const", "attr": {"value": {"tensor": {"dtype": "DT_INT32", "tensorShape": {"dim": [{"size": "1"}]}}}, "dtype": {"type": "DT_INT32"}}}, {"name": "StatefulPartitionedCall/transformer_2/encoder_2/encoder_layer_7/feed_forward_13/layer_normalization_33/strided_slice_1/stack", "op": "Const", "attr": {"value": {"tensor": {"dtype": "DT_INT32", "tensorShape": {"dim": [{"size": "1"}]}}}, "dtype": {"type": "DT_INT32"}}}, {"name": "StatefulPartitionedCall/transformer_2/encoder_2/encoder_layer_7/feed_forward_13/layer_normalization_33/strided_slice_1/stack_1", "op": "Const", "attr": {"value": {"tensor": {"dtype": "DT_INT32", "tensorShape": {"dim": [{"size": "1"}]}}}, "dtype": {"type": "DT_INT32"}}}, {"name": "StatefulPartitionedCall/transformer_2/encoder_2/encoder_layer_7/feed_forward_13/layer_normalization_33/strided_slice_1/stack_2", "op": "Const", "attr": {"value": {"tensor": {"dtype": "DT_INT32", "tensorShape": {"dim": [{"size": "1"}]}}}, "dtype": {"type": "DT_INT32"}}}, {"name": "StatefulPartitionedCall/transformer_2/encoder_2/encoder_layer_7/feed_forward_13/layer_normalization_33/zeros/Const", "op": "Const", "attr": {"value": {"tensor": {"dtype": "DT_FLOAT", "tensorShape": {}}}, "dtype": {"type": "DT_FLOAT"}}}, {"name": "StatefulPartitionedCall/transformer_2/encoder_2/encoder_layer_7/feed_forward_13/layer_normalization_33/Const", "op": "Const", "attr": {"value": {"tensor": {"dtype": "DT_FLOAT", "tensorShape": {"dim": [{}]}}}, "dtype": {"type": "DT_FLOAT"}}}, {"name": "StatefulPartitionedCall/transformer_2/encoder_2/encoder_layer_7/feed_forward_13/layer_normalization_33/Const_1", "op": "Const", "attr": {"value": {"tensor": {"dtype": "DT_FLOAT", "tensorShape": {"dim": [{}]}}}, "dtype": {"type": "DT_FLOAT"}}}, {"name": "StatefulPartitionedCall/transformer_2/encoder_2/encoder_layer_7/feed_forward_13/sequential_13/dense_29/Tensordot/Const", "op": "Const", "attr": {"value": {"tensor": {"dtype": "DT_INT32", "tensorShape": {"dim": [{"size": "1"}]}}}, "dtype": {"type": "DT_INT32"}}}, {"name": "StatefulPartitionedCall/transformer_2/encoder_2/encoder_layer_7/feed_forward_13/sequential_13/dense_29/Tensordot/axes", "op": "Const", "attr": {"value": {"tensor": {"dtype": "DT_INT32", "tensorShape": {"dim": [{"size": "1"}]}}}, "dtype": {"type": "DT_INT32"}}}, {"name": "StatefulPartitionedCall/transformer_2/encoder_2/encoder_layer_7/feed_forward_13/sequential_13/dense_29/Tensordot/GatherV2_1/axis", "op": "Const", "attr": {"value": {"tensor": {"dtype": "DT_INT32", "tensorShape": {}}}, "dtype": {"type": "DT_INT32"}}}, {"name": "StatefulPartitionedCall/transformer_2/encoder_2/encoder_layer_7/feed_forward_13/sequential_13/dense_29/Tensordot/Const_1", "op": "Const", "attr": {"value": {"tensor": {"dtype": "DT_INT32", "tensorShape": {"dim": [{"size": "1"}]}}}, "dtype": {"type": "DT_INT32"}}}, {"name": "StatefulPartitionedCall/transformer_2/encoder_2/encoder_layer_7/feed_forward_13/sequential_13/dense_29/Tensordot/ReadVariableOp", "op": "Const", "attr": {"value": {"tensor": {"dtype": "DT_FLOAT", "tensorShape": {"dim": [{"size": "2048"}, {"size": "128"}]}}}, "dtype": {"type": "DT_FLOAT"}}}, {"name": "StatefulPartitionedCall/transformer_2/encoder_2/encoder_layer_7/feed_forward_13/sequential_13/dense_28/Tensordot/Const", "op": "Const", "attr": {"value": {"tensor": {"dtype": "DT_INT32", "tensorShape": {"dim": [{"size": "1"}]}}}, "dtype": {"type": "DT_INT32"}}}, {"name": "StatefulPartitionedCall/transformer_2/encoder_2/encoder_layer_7/feed_forward_13/sequential_13/dense_28/Tensordot/axes", "op": "Const", "attr": {"value": {"tensor": {"dtype": "DT_INT32", "tensorShape": {"dim": [{"size": "1"}]}}}, "dtype": {"type": "DT_INT32"}}}, {"name": "StatefulPartitionedCall/transformer_2/encoder_2/encoder_layer_7/feed_forward_13/sequential_13/dense_28/Tensordot/GatherV2_1/axis", "op": "Const", "attr": {"value": {"tensor": {"dtype": "DT_INT32", "tensorShape": {}}}, "dtype": {"type": "DT_INT32"}}}, {"name": "StatefulPartitionedCall/transformer_2/encoder_2/encoder_layer_7/feed_forward_13/sequential_13/dense_28/Tensordot/Const_1", "op": "Const", "attr": {"value": {"tensor": {"dtype": "DT_INT32", "tensorShape": {"dim": [{"size": "1"}]}}}, "dtype": {"type": "DT_INT32"}}}, {"name": "StatefulPartitionedCall/transformer_2/encoder_2/encoder_layer_7/feed_forward_13/sequential_13/dense_28/Tensordot/ReadVariableOp", "op": "Const", "attr": {"value": {"tensor": {"dtype": "DT_FLOAT", "tensorShape": {"dim": [{"size": "128"}, {"size": "2048"}]}}}, "dtype": {"type": "DT_FLOAT"}}}, {"name": "StatefulPartitionedCall/transformer_2/encoder_2/encoder_layer_7/global_self_attention_7/layer_normalization_32/Reshape/shape/0", "op": "Const", "attr": {"value": {"tensor": {"dtype": "DT_INT32", "tensorShape": {}}}, "dtype": {"type": "DT_INT32"}}}, {"name": "StatefulPartitionedCall/transformer_2/encoder_2/encoder_layer_7/global_self_attention_7/layer_normalization_32/strided_slice_2/stack", "op": "Const", "attr": {"value": {"tensor": {"dtype": "DT_INT32", "tensorShape": {"dim": [{"size": "1"}]}}}, "dtype": {"type": "DT_INT32"}}}, {"name": "StatefulPartitionedCall/transformer_2/encoder_2/encoder_layer_7/global_self_attention_7/layer_normalization_32/strided_slice_2/stack_1", "op": "Const", "attr": {"value": {"tensor": {"dtype": "DT_INT32", "tensorShape": {"dim": [{"size": "1"}]}}}, "dtype": {"type": "DT_INT32"}}}, {"name": "StatefulPartitionedCall/transformer_2/encoder_2/encoder_layer_7/global_self_attention_7/layer_normalization_32/strided_slice_2/stack_2", "op": "Const", "attr": {"value": {"tensor": {"dtype": "DT_INT32", "tensorShape": {"dim": [{"size": "1"}]}}}, "dtype": {"type": "DT_INT32"}}}, {"name": "StatefulPartitionedCall/transformer_2/encoder_2/encoder_layer_7/global_self_attention_7/layer_normalization_32/Reshape/shape/3", "op": "Const", "attr": {"value": {"tensor": {"dtype": "DT_INT32", "tensorShape": {}}}, "dtype": {"type": "DT_INT32"}}}, {"name": "StatefulPartitionedCall/transformer_2/encoder_2/encoder_layer_7/global_self_attention_7/layer_normalization_32/ones/Const", "op": "Const", "attr": {"value": {"tensor": {"dtype": "DT_FLOAT", "tensorShape": {}}}, "dtype": {"type": "DT_FLOAT"}}}, {"name": "StatefulPartitionedCall/transformer_2/encoder_2/encoder_layer_7/global_self_attention_7/layer_normalization_32/strided_slice/stack", "op": "Const", "attr": {"value": {"tensor": {"dtype": "DT_INT32", "tensorShape": {"dim": [{"size": "1"}]}}}, "dtype": {"type": "DT_INT32"}}}, {"name": "StatefulPartitionedCall/transformer_2/encoder_2/encoder_layer_7/global_self_attention_7/layer_normalization_32/strided_slice/stack_1", "op": "Const", "attr": {"value": {"tensor": {"dtype": "DT_INT32", "tensorShape": {"dim": [{"size": "1"}]}}}, "dtype": {"type": "DT_INT32"}}}, {"name": "StatefulPartitionedCall/transformer_2/encoder_2/encoder_layer_7/global_self_attention_7/layer_normalization_32/strided_slice/stack_2", "op": "Const", "attr": {"value": {"tensor": {"dtype": "DT_INT32", "tensorShape": {"dim": [{"size": "1"}]}}}, "dtype": {"type": "DT_INT32"}}}, {"name": "StatefulPartitionedCall/transformer_2/encoder_2/encoder_layer_7/global_self_attention_7/layer_normalization_32/strided_slice_1/stack", "op": "Const", "attr": {"value": {"tensor": {"dtype": "DT_INT32", "tensorShape": {"dim": [{"size": "1"}]}}}, "dtype": {"type": "DT_INT32"}}}, {"name": "StatefulPartitionedCall/transformer_2/encoder_2/encoder_layer_7/global_self_attention_7/layer_normalization_32/strided_slice_1/stack_1", "op": "Const", "attr": {"value": {"tensor": {"dtype": "DT_INT32", "tensorShape": {"dim": [{"size": "1"}]}}}, "dtype": {"type": "DT_INT32"}}}, {"name": "StatefulPartitionedCall/transformer_2/encoder_2/encoder_layer_7/global_self_attention_7/layer_normalization_32/strided_slice_1/stack_2", "op": "Const", "attr": {"value": {"tensor": {"dtype": "DT_INT32", "tensorShape": {"dim": [{"size": "1"}]}}}, "dtype": {"type": "DT_INT32"}}}, {"name": "StatefulPartitionedCall/transformer_2/encoder_2/encoder_layer_7/global_self_attention_7/layer_normalization_32/zeros/Const", "op": "Const", "attr": {"value": {"tensor": {"dtype": "DT_FLOAT", "tensorShape": {}}}, "dtype": {"type": "DT_FLOAT"}}}, {"name": "StatefulPartitionedCall/transformer_2/encoder_2/encoder_layer_7/global_self_attention_7/layer_normalization_32/Const", "op": "Const", "attr": {"value": {"tensor": {"dtype": "DT_FLOAT", "tensorShape": {"dim": [{}]}}}, "dtype": {"type": "DT_FLOAT"}}}, {"name": "StatefulPartitionedCall/transformer_2/encoder_2/encoder_layer_7/global_self_attention_7/layer_normalization_32/Const_1", "op": "Const", "attr": {"value": {"tensor": {"dtype": "DT_FLOAT", "tensorShape": {"dim": [{}]}}}, "dtype": {"type": "DT_FLOAT"}}}, {"name": "StatefulPartitionedCall/transformer_2/encoder_2/encoder_layer_7/global_self_attention_7/multi_head_attention_19/key/einsum/Einsum/ReadVariableOp", "op": "Const", "attr": {"value": {"tensor": {"dtype": "DT_FLOAT", "tensorShape": {"dim": [{"size": "128"}, {"size": "8"}, {"size": "128"}]}}}, "dtype": {"type": "DT_FLOAT"}}}, {"name": "StatefulPartitionedCall/transformer_2/encoder_2/encoder_layer_7/global_self_attention_7/multi_head_attention_19/key/add/ReadVariableOp", "op": "Const", "attr": {"value": {"tensor": {"dtype": "DT_FLOAT", "tensorShape": {"dim": [{"size": "8"}, {"size": "128"}]}}}, "dtype": {"type": "DT_FLOAT"}}}, {"name": "StatefulPartitionedCall/transformer_2/encoder_2/encoder_layer_7/global_self_attention_7/multi_head_attention_19/query/einsum/Einsum/ReadVariableOp", "op": "Const", "attr": {"value": {"tensor": {"dtype": "DT_FLOAT", "tensorShape": {"dim": [{"size": "128"}, {"size": "8"}, {"size": "128"}]}}}, "dtype": {"type": "DT_FLOAT"}}}, {"name": "StatefulPartitionedCall/transformer_2/encoder_2/encoder_layer_7/global_self_attention_7/multi_head_attention_19/query/add/ReadVariableOp", "op": "Const", "attr": {"value": {"tensor": {"dtype": "DT_FLOAT", "tensorShape": {"dim": [{"size": "8"}, {"size": "128"}]}}}, "dtype": {"type": "DT_FLOAT"}}}, {"name": "StatefulPartitionedCall/transformer_2/encoder_2/encoder_layer_7/global_self_attention_7/multi_head_attention_19/Mul/y", "op": "Const", "attr": {"value": {"tensor": {"dtype": "DT_FLOAT", "tensorShape": {}}}, "dtype": {"type": "DT_FLOAT"}}}, {"name": "StatefulPartitionedCall/transformer_2/encoder_2/encoder_layer_6/feed_forward_12/layer_normalization_31/Reshape/shape/0", "op": "Const", "attr": {"value": {"tensor": {"dtype": "DT_INT32", "tensorShape": {}}}, "dtype": {"type": "DT_INT32"}}}, {"name": "StatefulPartitionedCall/transformer_2/encoder_2/encoder_layer_6/feed_forward_12/layer_normalization_31/strided_slice_2/stack", "op": "Const", "attr": {"value": {"tensor": {"dtype": "DT_INT32", "tensorShape": {"dim": [{"size": "1"}]}}}, "dtype": {"type": "DT_INT32"}}}, {"name": "StatefulPartitionedCall/transformer_2/encoder_2/encoder_layer_6/feed_forward_12/layer_normalization_31/strided_slice_2/stack_1", "op": "Const", "attr": {"value": {"tensor": {"dtype": "DT_INT32", "tensorShape": {"dim": [{"size": "1"}]}}}, "dtype": {"type": "DT_INT32"}}}, {"name": "StatefulPartitionedCall/transformer_2/encoder_2/encoder_layer_6/feed_forward_12/layer_normalization_31/strided_slice_2/stack_2", "op": "Const", "attr": {"value": {"tensor": {"dtype": "DT_INT32", "tensorShape": {"dim": [{"size": "1"}]}}}, "dtype": {"type": "DT_INT32"}}}, {"name": "StatefulPartitionedCall/transformer_2/encoder_2/encoder_layer_6/feed_forward_12/layer_normalization_31/Reshape/shape/3", "op": "Const", "attr": {"value": {"tensor": {"dtype": "DT_INT32", "tensorShape": {}}}, "dtype": {"type": "DT_INT32"}}}, {"name": "StatefulPartitionedCall/transformer_2/encoder_2/encoder_layer_6/feed_forward_12/layer_normalization_31/ones/Const", "op": "Const", "attr": {"value": {"tensor": {"dtype": "DT_FLOAT", "tensorShape": {}}}, "dtype": {"type": "DT_FLOAT"}}}, {"name": "StatefulPartitionedCall/transformer_2/encoder_2/encoder_layer_6/feed_forward_12/layer_normalization_31/strided_slice/stack", "op": "Const", "attr": {"value": {"tensor": {"dtype": "DT_INT32", "tensorShape": {"dim": [{"size": "1"}]}}}, "dtype": {"type": "DT_INT32"}}}, {"name": "StatefulPartitionedCall/transformer_2/encoder_2/encoder_layer_6/feed_forward_12/layer_normalization_31/strided_slice/stack_1", "op": "Const", "attr": {"value": {"tensor": {"dtype": "DT_INT32", "tensorShape": {"dim": [{"size": "1"}]}}}, "dtype": {"type": "DT_INT32"}}}, {"name": "StatefulPartitionedCall/transformer_2/encoder_2/encoder_layer_6/feed_forward_12/layer_normalization_31/strided_slice/stack_2", "op": "Const", "attr": {"value": {"tensor": {"dtype": "DT_INT32", "tensorShape": {"dim": [{"size": "1"}]}}}, "dtype": {"type": "DT_INT32"}}}, {"name": "StatefulPartitionedCall/transformer_2/encoder_2/encoder_layer_6/feed_forward_12/layer_normalization_31/strided_slice_1/stack", "op": "Const", "attr": {"value": {"tensor": {"dtype": "DT_INT32", "tensorShape": {"dim": [{"size": "1"}]}}}, "dtype": {"type": "DT_INT32"}}}, {"name": "StatefulPartitionedCall/transformer_2/encoder_2/encoder_layer_6/feed_forward_12/layer_normalization_31/strided_slice_1/stack_1", "op": "Const", "attr": {"value": {"tensor": {"dtype": "DT_INT32", "tensorShape": {"dim": [{"size": "1"}]}}}, "dtype": {"type": "DT_INT32"}}}, {"name": "StatefulPartitionedCall/transformer_2/encoder_2/encoder_layer_6/feed_forward_12/layer_normalization_31/strided_slice_1/stack_2", "op": "Const", "attr": {"value": {"tensor": {"dtype": "DT_INT32", "tensorShape": {"dim": [{"size": "1"}]}}}, "dtype": {"type": "DT_INT32"}}}, {"name": "StatefulPartitionedCall/transformer_2/encoder_2/encoder_layer_6/feed_forward_12/layer_normalization_31/zeros/Const", "op": "Const", "attr": {"value": {"tensor": {"dtype": "DT_FLOAT", "tensorShape": {}}}, "dtype": {"type": "DT_FLOAT"}}}, {"name": "StatefulPartitionedCall/transformer_2/encoder_2/encoder_layer_6/feed_forward_12/layer_normalization_31/Const", "op": "Const", "attr": {"value": {"tensor": {"dtype": "DT_FLOAT", "tensorShape": {"dim": [{}]}}}, "dtype": {"type": "DT_FLOAT"}}}, {"name": "StatefulPartitionedCall/transformer_2/encoder_2/encoder_layer_6/feed_forward_12/layer_normalization_31/Const_1", "op": "Const", "attr": {"value": {"tensor": {"dtype": "DT_FLOAT", "tensorShape": {"dim": [{}]}}}, "dtype": {"type": "DT_FLOAT"}}}, {"name": "StatefulPartitionedCall/transformer_2/encoder_2/encoder_layer_6/feed_forward_12/sequential_12/dense_27/Tensordot/Const", "op": "Const", "attr": {"value": {"tensor": {"dtype": "DT_INT32", "tensorShape": {"dim": [{"size": "1"}]}}}, "dtype": {"type": "DT_INT32"}}}, {"name": "StatefulPartitionedCall/transformer_2/encoder_2/encoder_layer_6/feed_forward_12/sequential_12/dense_27/Tensordot/axes", "op": "Const", "attr": {"value": {"tensor": {"dtype": "DT_INT32", "tensorShape": {"dim": [{"size": "1"}]}}}, "dtype": {"type": "DT_INT32"}}}, {"name": "StatefulPartitionedCall/transformer_2/encoder_2/encoder_layer_6/feed_forward_12/sequential_12/dense_27/Tensordot/GatherV2_1/axis", "op": "Const", "attr": {"value": {"tensor": {"dtype": "DT_INT32", "tensorShape": {}}}, "dtype": {"type": "DT_INT32"}}}, {"name": "StatefulPartitionedCall/transformer_2/encoder_2/encoder_layer_6/feed_forward_12/sequential_12/dense_27/Tensordot/Const_1", "op": "Const", "attr": {"value": {"tensor": {"dtype": "DT_INT32", "tensorShape": {"dim": [{"size": "1"}]}}}, "dtype": {"type": "DT_INT32"}}}, {"name": "StatefulPartitionedCall/transformer_2/encoder_2/encoder_layer_6/feed_forward_12/sequential_12/dense_27/Tensordot/ReadVariableOp", "op": "Const", "attr": {"value": {"tensor": {"dtype": "DT_FLOAT", "tensorShape": {"dim": [{"size": "2048"}, {"size": "128"}]}}}, "dtype": {"type": "DT_FLOAT"}}}, {"name": "StatefulPartitionedCall/transformer_2/encoder_2/encoder_layer_6/feed_forward_12/sequential_12/dense_26/Tensordot/Const", "op": "Const", "attr": {"value": {"tensor": {"dtype": "DT_INT32", "tensorShape": {"dim": [{"size": "1"}]}}}, "dtype": {"type": "DT_INT32"}}}, {"name": "StatefulPartitionedCall/transformer_2/encoder_2/encoder_layer_6/feed_forward_12/sequential_12/dense_26/Tensordot/axes", "op": "Const", "attr": {"value": {"tensor": {"dtype": "DT_INT32", "tensorShape": {"dim": [{"size": "1"}]}}}, "dtype": {"type": "DT_INT32"}}}, {"name": "StatefulPartitionedCall/transformer_2/encoder_2/encoder_layer_6/feed_forward_12/sequential_12/dense_26/Tensordot/GatherV2_1/axis", "op": "Const", "attr": {"value": {"tensor": {"dtype": "DT_INT32", "tensorShape": {}}}, "dtype": {"type": "DT_INT32"}}}, {"name": "StatefulPartitionedCall/transformer_2/encoder_2/encoder_layer_6/feed_forward_12/sequential_12/dense_26/Tensordot/Const_1", "op": "Const", "attr": {"value": {"tensor": {"dtype": "DT_INT32", "tensorShape": {"dim": [{"size": "1"}]}}}, "dtype": {"type": "DT_INT32"}}}, {"name": "StatefulPartitionedCall/transformer_2/encoder_2/encoder_layer_6/feed_forward_12/sequential_12/dense_26/Tensordot/ReadVariableOp", "op": "Const", "attr": {"value": {"tensor": {"dtype": "DT_FLOAT", "tensorShape": {"dim": [{"size": "128"}, {"size": "2048"}]}}}, "dtype": {"type": "DT_FLOAT"}}}, {"name": "StatefulPartitionedCall/transformer_2/encoder_2/encoder_layer_6/global_self_attention_6/layer_normalization_30/Reshape/shape/0", "op": "Const", "attr": {"value": {"tensor": {"dtype": "DT_INT32", "tensorShape": {}}}, "dtype": {"type": "DT_INT32"}}}, {"name": "StatefulPartitionedCall/transformer_2/encoder_2/encoder_layer_6/global_self_attention_6/layer_normalization_30/strided_slice_2/stack", "op": "Const", "attr": {"value": {"tensor": {"dtype": "DT_INT32", "tensorShape": {"dim": [{"size": "1"}]}}}, "dtype": {"type": "DT_INT32"}}}, {"name": "StatefulPartitionedCall/transformer_2/encoder_2/encoder_layer_6/global_self_attention_6/layer_normalization_30/strided_slice_2/stack_1", "op": "Const", "attr": {"value": {"tensor": {"dtype": "DT_INT32", "tensorShape": {"dim": [{"size": "1"}]}}}, "dtype": {"type": "DT_INT32"}}}, {"name": "StatefulPartitionedCall/transformer_2/encoder_2/encoder_layer_6/global_self_attention_6/layer_normalization_30/strided_slice_2/stack_2", "op": "Const", "attr": {"value": {"tensor": {"dtype": "DT_INT32", "tensorShape": {"dim": [{"size": "1"}]}}}, "dtype": {"type": "DT_INT32"}}}, {"name": "StatefulPartitionedCall/transformer_2/encoder_2/encoder_layer_6/global_self_attention_6/layer_normalization_30/Reshape/shape/3", "op": "Const", "attr": {"value": {"tensor": {"dtype": "DT_INT32", "tensorShape": {}}}, "dtype": {"type": "DT_INT32"}}}, {"name": "StatefulPartitionedCall/transformer_2/encoder_2/encoder_layer_6/global_self_attention_6/layer_normalization_30/ones/Const", "op": "Const", "attr": {"value": {"tensor": {"dtype": "DT_FLOAT", "tensorShape": {}}}, "dtype": {"type": "DT_FLOAT"}}}, {"name": "StatefulPartitionedCall/transformer_2/encoder_2/encoder_layer_6/global_self_attention_6/layer_normalization_30/strided_slice/stack", "op": "Const", "attr": {"value": {"tensor": {"dtype": "DT_INT32", "tensorShape": {"dim": [{"size": "1"}]}}}, "dtype": {"type": "DT_INT32"}}}, {"name": "StatefulPartitionedCall/transformer_2/encoder_2/encoder_layer_6/global_self_attention_6/layer_normalization_30/strided_slice/stack_1", "op": "Const", "attr": {"value": {"tensor": {"dtype": "DT_INT32", "tensorShape": {"dim": [{"size": "1"}]}}}, "dtype": {"type": "DT_INT32"}}}, {"name": "StatefulPartitionedCall/transformer_2/encoder_2/encoder_layer_6/global_self_attention_6/layer_normalization_30/strided_slice/stack_2", "op": "Const", "attr": {"value": {"tensor": {"dtype": "DT_INT32", "tensorShape": {"dim": [{"size": "1"}]}}}, "dtype": {"type": "DT_INT32"}}}, {"name": "StatefulPartitionedCall/transformer_2/encoder_2/encoder_layer_6/global_self_attention_6/layer_normalization_30/strided_slice_1/stack", "op": "Const", "attr": {"value": {"tensor": {"dtype": "DT_INT32", "tensorShape": {"dim": [{"size": "1"}]}}}, "dtype": {"type": "DT_INT32"}}}, {"name": "StatefulPartitionedCall/transformer_2/encoder_2/encoder_layer_6/global_self_attention_6/layer_normalization_30/strided_slice_1/stack_1", "op": "Const", "attr": {"value": {"tensor": {"dtype": "DT_INT32", "tensorShape": {"dim": [{"size": "1"}]}}}, "dtype": {"type": "DT_INT32"}}}, {"name": "StatefulPartitionedCall/transformer_2/encoder_2/encoder_layer_6/global_self_attention_6/layer_normalization_30/strided_slice_1/stack_2", "op": "Const", "attr": {"value": {"tensor": {"dtype": "DT_INT32", "tensorShape": {"dim": [{"size": "1"}]}}}, "dtype": {"type": "DT_INT32"}}}, {"name": "StatefulPartitionedCall/transformer_2/encoder_2/encoder_layer_6/global_self_attention_6/layer_normalization_30/zeros/Const", "op": "Const", "attr": {"value": {"tensor": {"dtype": "DT_FLOAT", "tensorShape": {}}}, "dtype": {"type": "DT_FLOAT"}}}, {"name": "StatefulPartitionedCall/transformer_2/encoder_2/encoder_layer_6/global_self_attention_6/layer_normalization_30/Const", "op": "Const", "attr": {"value": {"tensor": {"dtype": "DT_FLOAT", "tensorShape": {"dim": [{}]}}}, "dtype": {"type": "DT_FLOAT"}}}, {"name": "StatefulPartitionedCall/transformer_2/encoder_2/encoder_layer_6/global_self_attention_6/layer_normalization_30/Const_1", "op": "Const", "attr": {"value": {"tensor": {"dtype": "DT_FLOAT", "tensorShape": {"dim": [{}]}}}, "dtype": {"type": "DT_FLOAT"}}}, {"name": "StatefulPartitionedCall/transformer_2/encoder_2/encoder_layer_6/global_self_attention_6/multi_head_attention_18/key/einsum/Einsum/ReadVariableOp", "op": "Const", "attr": {"value": {"tensor": {"dtype": "DT_FLOAT", "tensorShape": {"dim": [{"size": "128"}, {"size": "8"}, {"size": "128"}]}}}, "dtype": {"type": "DT_FLOAT"}}}, {"name": "StatefulPartitionedCall/transformer_2/encoder_2/encoder_layer_6/global_self_attention_6/multi_head_attention_18/key/add/ReadVariableOp", "op": "Const", "attr": {"value": {"tensor": {"dtype": "DT_FLOAT", "tensorShape": {"dim": [{"size": "8"}, {"size": "128"}]}}}, "dtype": {"type": "DT_FLOAT"}}}, {"name": "StatefulPartitionedCall/transformer_2/encoder_2/encoder_layer_6/global_self_attention_6/multi_head_attention_18/query/einsum/Einsum/ReadVariableOp", "op": "Const", "attr": {"value": {"tensor": {"dtype": "DT_FLOAT", "tensorShape": {"dim": [{"size": "128"}, {"size": "8"}, {"size": "128"}]}}}, "dtype": {"type": "DT_FLOAT"}}}, {"name": "StatefulPartitionedCall/transformer_2/encoder_2/encoder_layer_6/global_self_attention_6/multi_head_attention_18/query/add/ReadVariableOp", "op": "Const", "attr": {"value": {"tensor": {"dtype": "DT_FLOAT", "tensorShape": {"dim": [{"size": "8"}, {"size": "128"}]}}}, "dtype": {"type": "DT_FLOAT"}}}, {"name": "StatefulPartitionedCall/transformer_2/encoder_2/encoder_layer_6/global_self_attention_6/multi_head_attention_18/Mul/y", "op": "Const", "attr": {"value": {"tensor": {"dtype": "DT_FLOAT", "tensorShape": {}}}, "dtype": {"type": "DT_FLOAT"}}}, {"name": "unknown", "op": "Const", "attr": {"value": {"tensor": {"dtype": "DT_FLOAT", "tensorShape": {"dim": [{"size": "1000"}, {"size": "128"}]}}}, "dtype": {"type": "DT_FLOAT"}}}, {"name": "StatefulPartitionedCall/transformer_2/encoder_2/positional_embedding_4/embedding_4/embedding_lookup/axis", "op": "Const", "attr": {"value": {"tensor": {"dtype": "DT_INT32", "tensorShape": {}}}, "dtype": {"type": "DT_INT32"}}}, {"name": "StatefulPartitionedCall/transformer_2/encoder_2/positional_embedding_4/Sqrt", "op": "Const", "attr": {"value": {"tensor": {"dtype": "DT_FLOAT", "tensorShape": {}}}, "dtype": {"type": "DT_FLOAT"}}}, {"name": "unknown_0", "op": "Const", "attr": {"value": {"tensor": {"dtype": "DT_FLOAT", "tensorShape": {"dim": [{"size": "2048"}, {"size": "128"}]}}}, "dtype": {"type": "DT_FLOAT"}}}, {"name": "StatefulPartitionedCall/transformer_2/encoder_2/positional_embedding_4/strided_slice_1/stack", "op": "Const", "attr": {"value": {"tensor": {"dtype": "DT_INT32", "tensorShape": {"dim": [{"size": "3"}]}}}, "dtype": {"type": "DT_INT32"}}}, {"name": "StatefulPartitionedCall/transformer_2/encoder_2/positional_embedding_4/strided_slice_1/stack_1/0", "op": "Const", "attr": {"value": {"tensor": {"dtype": "DT_INT32", "tensorShape": {}}}, "dtype": {"type": "DT_INT32"}}}, {"name": "StatefulPartitionedCall/transformer_2/encoder_2/positional_embedding_4/strided_slice/stack", "op": "Const", "attr": {"value": {"tensor": {"dtype": "DT_INT32", "tensorShape": {"dim": [{"size": "1"}]}}}, "dtype": {"type": "DT_INT32"}}}, {"name": "StatefulPartitionedCall/transformer_2/encoder_2/positional_embedding_4/strided_slice/stack_1", "op": "Const", "attr": {"value": {"tensor": {"dtype": "DT_INT32", "tensorShape": {"dim": [{"size": "1"}]}}}, "dtype": {"type": "DT_INT32"}}}, {"name": "StatefulPartitionedCall/transformer_2/encoder_2/positional_embedding_4/strided_slice/stack_2", "op": "Const", "attr": {"value": {"tensor": {"dtype": "DT_INT32", "tensorShape": {"dim": [{"size": "1"}]}}}, "dtype": {"type": "DT_INT32"}}}, {"name": "StatefulPartitionedCall/transformer_2/encoder_2/positional_embedding_4/strided_slice_1/stack_1/2", "op": "Const", "attr": {"value": {"tensor": {"dtype": "DT_INT32", "tensorShape": {}}}, "dtype": {"type": "DT_INT32"}}}, {"name": "StatefulPartitionedCall/transformer_2/encoder_2/positional_embedding_4/strided_slice_1/stack_2", "op": "Const", "attr": {"value": {"tensor": {"dtype": "DT_INT32", "tensorShape": {"dim": [{"size": "3"}]}}}, "dtype": {"type": "DT_INT32"}}}, {"name": "StatefulPartitionedCall/transformer_2/encoder_2/encoder_layer_6/global_self_attention_6/multi_head_attention_18/value/einsum/Einsum/ReadVariableOp", "op": "Const", "attr": {"value": {"tensor": {"dtype": "DT_FLOAT", "tensorShape": {"dim": [{"size": "128"}, {"size": "8"}, {"size": "128"}]}}}, "dtype": {"type": "DT_FLOAT"}}}, {"name": "StatefulPartitionedCall/transformer_2/encoder_2/encoder_layer_6/global_self_attention_6/multi_head_attention_18/value/add/ReadVariableOp", "op": "Const", "attr": {"value": {"tensor": {"dtype": "DT_FLOAT", "tensorShape": {"dim": [{"size": "8"}, {"size": "128"}]}}}, "dtype": {"type": "DT_FLOAT"}}}, {"name": "StatefulPartitionedCall/transformer_2/encoder_2/encoder_layer_6/global_self_attention_6/multi_head_attention_18/attention_output/einsum/Einsum/ReadVariableOp", "op": "Const", "attr": {"value": {"tensor": {"dtype": "DT_FLOAT", "tensorShape": {"dim": [{"size": "8"}, {"size": "128"}, {"size": "128"}]}}}, "dtype": {"type": "DT_FLOAT"}}}, {"name": "StatefulPartitionedCall/transformer_2/encoder_2/encoder_layer_6/global_self_attention_6/multi_head_attention_18/attention_output/add/ReadVariableOp", "op": "Const", "attr": {"value": {"tensor": {"dtype": "DT_FLOAT", "tensorShape": {"dim": [{"size": "128"}]}}}, "dtype": {"type": "DT_FLOAT"}}}, {"name": "StatefulPartitionedCall/transformer_2/encoder_2/encoder_layer_6/global_self_attention_6/layer_normalization_30/mul_3/ReadVariableOp", "op": "Const", "attr": {"value": {"tensor": {"dtype": "DT_FLOAT", "tensorShape": {"dim": [{"size": "128"}]}}}, "dtype": {"type": "DT_FLOAT"}}}, {"name": "StatefulPartitionedCall/transformer_2/encoder_2/encoder_layer_6/global_self_attention_6/layer_normalization_30/add/ReadVariableOp", "op": "Const", "attr": {"value": {"tensor": {"dtype": "DT_FLOAT", "tensorShape": {"dim": [{"size": "128"}]}}}, "dtype": {"type": "DT_FLOAT"}}}, {"name": "StatefulPartitionedCall/transformer_2/encoder_2/encoder_layer_6/feed_forward_12/sequential_12/dense_26/Tensordot/free", "op": "Const", "attr": {"value": {"tensor": {"dtype": "DT_INT32", "tensorShape": {"dim": [{"size": "2"}]}}}, "dtype": {"type": "DT_INT32"}}}, {"name": "StatefulPartitionedCall/transformer_2/encoder_2/encoder_layer_6/feed_forward_12/sequential_12/dense_26/Tensordot/GatherV2/axis", "op": "Const", "attr": {"value": {"tensor": {"dtype": "DT_INT32", "tensorShape": {}}}, "dtype": {"type": "DT_INT32"}}}, {"name": "StatefulPartitionedCall/transformer_2/encoder_2/encoder_layer_6/feed_forward_12/sequential_12/dense_26/Tensordot/Const_2", "op": "Const", "attr": {"value": {"tensor": {"dtype": "DT_INT32", "tensorShape": {"dim": [{"size": "1"}]}}}, "dtype": {"type": "DT_INT32"}}}, {"name": "StatefulPartitionedCall/transformer_2/encoder_2/encoder_layer_6/feed_forward_12/sequential_12/dense_26/Tensordot/concat_1/axis", "op": "Const", "attr": {"value": {"tensor": {"dtype": "DT_INT32", "tensorShape": {}}}, "dtype": {"type": "DT_INT32"}}}, {"name": "StatefulPartitionedCall/transformer_2/encoder_2/encoder_layer_6/feed_forward_12/sequential_12/dense_26/BiasAdd/ReadVariableOp", "op": "Const", "attr": {"value": {"tensor": {"dtype": "DT_FLOAT", "tensorShape": {"dim": [{"size": "2048"}]}}}, "dtype": {"type": "DT_FLOAT"}}}, {"name": "StatefulPartitionedCall/transformer_2/encoder_2/encoder_layer_6/feed_forward_12/sequential_12/dense_27/Tensordot/free", "op": "Const", "attr": {"value": {"tensor": {"dtype": "DT_INT32", "tensorShape": {"dim": [{"size": "2"}]}}}, "dtype": {"type": "DT_INT32"}}}, {"name": "StatefulPartitionedCall/transformer_2/encoder_2/encoder_layer_6/feed_forward_12/sequential_12/dense_27/Tensordot/GatherV2/axis", "op": "Const", "attr": {"value": {"tensor": {"dtype": "DT_INT32", "tensorShape": {}}}, "dtype": {"type": "DT_INT32"}}}, {"name": "StatefulPartitionedCall/transformer_2/encoder_2/encoder_layer_6/feed_forward_12/sequential_12/dense_27/Tensordot/Const_2", "op": "Const", "attr": {"value": {"tensor": {"dtype": "DT_INT32", "tensorShape": {"dim": [{"size": "1"}]}}}, "dtype": {"type": "DT_INT32"}}}, {"name": "StatefulPartitionedCall/transformer_2/encoder_2/encoder_layer_6/feed_forward_12/sequential_12/dense_27/Tensordot/concat_1/axis", "op": "Const", "attr": {"value": {"tensor": {"dtype": "DT_INT32", "tensorShape": {}}}, "dtype": {"type": "DT_INT32"}}}, {"name": "StatefulPartitionedCall/transformer_2/encoder_2/encoder_layer_6/feed_forward_12/sequential_12/dense_27/BiasAdd/ReadVariableOp", "op": "Const", "attr": {"value": {"tensor": {"dtype": "DT_FLOAT", "tensorShape": {"dim": [{"size": "128"}]}}}, "dtype": {"type": "DT_FLOAT"}}}, {"name": "StatefulPartitionedCall/transformer_2/encoder_2/encoder_layer_6/feed_forward_12/layer_normalization_31/mul_3/ReadVariableOp", "op": "Const", "attr": {"value": {"tensor": {"dtype": "DT_FLOAT", "tensorShape": {"dim": [{"size": "128"}]}}}, "dtype": {"type": "DT_FLOAT"}}}, {"name": "StatefulPartitionedCall/transformer_2/encoder_2/encoder_layer_6/feed_forward_12/layer_normalization_31/add/ReadVariableOp", "op": "Const", "attr": {"value": {"tensor": {"dtype": "DT_FLOAT", "tensorShape": {"dim": [{"size": "128"}]}}}, "dtype": {"type": "DT_FLOAT"}}}, {"name": "StatefulPartitionedCall/transformer_2/encoder_2/encoder_layer_7/global_self_attention_7/multi_head_attention_19/value/einsum/Einsum/ReadVariableOp", "op": "Const", "attr": {"value": {"tensor": {"dtype": "DT_FLOAT", "tensorShape": {"dim": [{"size": "128"}, {"size": "8"}, {"size": "128"}]}}}, "dtype": {"type": "DT_FLOAT"}}}, {"name": "StatefulPartitionedCall/transformer_2/encoder_2/encoder_layer_7/global_self_attention_7/multi_head_attention_19/value/add/ReadVariableOp", "op": "Const", "attr": {"value": {"tensor": {"dtype": "DT_FLOAT", "tensorShape": {"dim": [{"size": "8"}, {"size": "128"}]}}}, "dtype": {"type": "DT_FLOAT"}}}, {"name": "StatefulPartitionedCall/transformer_2/encoder_2/encoder_layer_7/global_self_attention_7/multi_head_attention_19/attention_output/einsum/Einsum/ReadVariableOp", "op": "Const", "attr": {"value": {"tensor": {"dtype": "DT_FLOAT", "tensorShape": {"dim": [{"size": "8"}, {"size": "128"}, {"size": "128"}]}}}, "dtype": {"type": "DT_FLOAT"}}}, {"name": "StatefulPartitionedCall/transformer_2/encoder_2/encoder_layer_7/global_self_attention_7/multi_head_attention_19/attention_output/add/ReadVariableOp", "op": "Const", "attr": {"value": {"tensor": {"dtype": "DT_FLOAT", "tensorShape": {"dim": [{"size": "128"}]}}}, "dtype": {"type": "DT_FLOAT"}}}, {"name": "StatefulPartitionedCall/transformer_2/encoder_2/encoder_layer_7/global_self_attention_7/layer_normalization_32/mul_3/ReadVariableOp", "op": "Const", "attr": {"value": {"tensor": {"dtype": "DT_FLOAT", "tensorShape": {"dim": [{"size": "128"}]}}}, "dtype": {"type": "DT_FLOAT"}}}, {"name": "StatefulPartitionedCall/transformer_2/encoder_2/encoder_layer_7/global_self_attention_7/layer_normalization_32/add/ReadVariableOp", "op": "Const", "attr": {"value": {"tensor": {"dtype": "DT_FLOAT", "tensorShape": {"dim": [{"size": "128"}]}}}, "dtype": {"type": "DT_FLOAT"}}}, {"name": "StatefulPartitionedCall/transformer_2/encoder_2/encoder_layer_7/feed_forward_13/sequential_13/dense_28/Tensordot/free", "op": "Const", "attr": {"value": {"tensor": {"dtype": "DT_INT32", "tensorShape": {"dim": [{"size": "2"}]}}}, "dtype": {"type": "DT_INT32"}}}, {"name": "StatefulPartitionedCall/transformer_2/encoder_2/encoder_layer_7/feed_forward_13/sequential_13/dense_28/Tensordot/GatherV2/axis", "op": "Const", "attr": {"value": {"tensor": {"dtype": "DT_INT32", "tensorShape": {}}}, "dtype": {"type": "DT_INT32"}}}, {"name": "StatefulPartitionedCall/transformer_2/encoder_2/encoder_layer_7/feed_forward_13/sequential_13/dense_28/Tensordot/Const_2", "op": "Const", "attr": {"value": {"tensor": {"dtype": "DT_INT32", "tensorShape": {"dim": [{"size": "1"}]}}}, "dtype": {"type": "DT_INT32"}}}, {"name": "StatefulPartitionedCall/transformer_2/encoder_2/encoder_layer_7/feed_forward_13/sequential_13/dense_28/Tensordot/concat_1/axis", "op": "Const", "attr": {"value": {"tensor": {"dtype": "DT_INT32", "tensorShape": {}}}, "dtype": {"type": "DT_INT32"}}}, {"name": "StatefulPartitionedCall/transformer_2/encoder_2/encoder_layer_7/feed_forward_13/sequential_13/dense_28/BiasAdd/ReadVariableOp", "op": "Const", "attr": {"value": {"tensor": {"dtype": "DT_FLOAT", "tensorShape": {"dim": [{"size": "2048"}]}}}, "dtype": {"type": "DT_FLOAT"}}}, {"name": "StatefulPartitionedCall/transformer_2/encoder_2/encoder_layer_7/feed_forward_13/sequential_13/dense_29/Tensordot/free", "op": "Const", "attr": {"value": {"tensor": {"dtype": "DT_INT32", "tensorShape": {"dim": [{"size": "2"}]}}}, "dtype": {"type": "DT_INT32"}}}, {"name": "StatefulPartitionedCall/transformer_2/encoder_2/encoder_layer_7/feed_forward_13/sequential_13/dense_29/Tensordot/GatherV2/axis", "op": "Const", "attr": {"value": {"tensor": {"dtype": "DT_INT32", "tensorShape": {}}}, "dtype": {"type": "DT_INT32"}}}, {"name": "StatefulPartitionedCall/transformer_2/encoder_2/encoder_layer_7/feed_forward_13/sequential_13/dense_29/Tensordot/Const_2", "op": "Const", "attr": {"value": {"tensor": {"dtype": "DT_INT32", "tensorShape": {"dim": [{"size": "1"}]}}}, "dtype": {"type": "DT_INT32"}}}, {"name": "StatefulPartitionedCall/transformer_2/encoder_2/encoder_layer_7/feed_forward_13/sequential_13/dense_29/Tensordot/concat_1/axis", "op": "Const", "attr": {"value": {"tensor": {"dtype": "DT_INT32", "tensorShape": {}}}, "dtype": {"type": "DT_INT32"}}}, {"name": "StatefulPartitionedCall/transformer_2/encoder_2/encoder_layer_7/feed_forward_13/sequential_13/dense_29/BiasAdd/ReadVariableOp", "op": "Const", "attr": {"value": {"tensor": {"dtype": "DT_FLOAT", "tensorShape": {"dim": [{"size": "128"}]}}}, "dtype": {"type": "DT_FLOAT"}}}, {"name": "StatefulPartitionedCall/transformer_2/encoder_2/encoder_layer_7/feed_forward_13/layer_normalization_33/mul_3/ReadVariableOp", "op": "Const", "attr": {"value": {"tensor": {"dtype": "DT_FLOAT", "tensorShape": {"dim": [{"size": "128"}]}}}, "dtype": {"type": "DT_FLOAT"}}}, {"name": "StatefulPartitionedCall/transformer_2/encoder_2/encoder_layer_7/feed_forward_13/layer_normalization_33/add/ReadVariableOp", "op": "Const", "attr": {"value": {"tensor": {"dtype": "DT_FLOAT", "tensorShape": {"dim": [{"size": "128"}]}}}, "dtype": {"type": "DT_FLOAT"}}}, {"name": "StatefulPartitionedCall/transformer_2/decoder_2/decoder_layer_7/cross_attention_7/multi_head_attention_23/value/einsum/Einsum/ReadVariableOp", "op": "Const", "attr": {"value": {"tensor": {"dtype": "DT_FLOAT", "tensorShape": {"dim": [{"size": "128"}, {"size": "8"}, {"size": "128"}]}}}, "dtype": {"type": "DT_FLOAT"}}}, {"name": "StatefulPartitionedCall/transformer_2/decoder_2/decoder_layer_7/cross_attention_7/multi_head_attention_23/value/add/ReadVariableOp", "op": "Const", "attr": {"value": {"tensor": {"dtype": "DT_FLOAT", "tensorShape": {"dim": [{"size": "8"}, {"size": "128"}]}}}, "dtype": {"type": "DT_FLOAT"}}}, {"name": "StatefulPartitionedCall/transformer_2/decoder_2/decoder_layer_7/cross_attention_7/multi_head_attention_23/attention_output/einsum/Einsum/ReadVariableOp", "op": "Const", "attr": {"value": {"tensor": {"dtype": "DT_FLOAT", "tensorShape": {"dim": [{"size": "8"}, {"size": "128"}, {"size": "128"}]}}}, "dtype": {"type": "DT_FLOAT"}}}, {"name": "StatefulPartitionedCall/transformer_2/decoder_2/decoder_layer_7/cross_attention_7/multi_head_attention_23/attention_output/add/ReadVariableOp", "op": "Const", "attr": {"value": {"tensor": {"dtype": "DT_FLOAT", "tensorShape": {"dim": [{"size": "128"}]}}}, "dtype": {"type": "DT_FLOAT"}}}, {"name": "StatefulPartitionedCall/transformer_2/decoder_2/decoder_layer_7/cross_attention_7/layer_normalization_38/mul_3/ReadVariableOp", "op": "Const", "attr": {"value": {"tensor": {"dtype": "DT_FLOAT", "tensorShape": {"dim": [{"size": "128"}]}}}, "dtype": {"type": "DT_FLOAT"}}}, {"name": "StatefulPartitionedCall/transformer_2/decoder_2/decoder_layer_7/cross_attention_7/layer_normalization_38/add/ReadVariableOp", "op": "Const", "attr": {"value": {"tensor": {"dtype": "DT_FLOAT", "tensorShape": {"dim": [{"size": "128"}]}}}, "dtype": {"type": "DT_FLOAT"}}}, {"name": "StatefulPartitionedCall/transformer_2/decoder_2/decoder_layer_7/feed_forward_15/sequential_15/dense_32/Tensordot/free", "op": "Const", "attr": {"value": {"tensor": {"dtype": "DT_INT32", "tensorShape": {"dim": [{"size": "2"}]}}}, "dtype": {"type": "DT_INT32"}}}, {"name": "StatefulPartitionedCall/transformer_2/decoder_2/decoder_layer_7/feed_forward_15/sequential_15/dense_32/Tensordot/GatherV2/axis", "op": "Const", "attr": {"value": {"tensor": {"dtype": "DT_INT32", "tensorShape": {}}}, "dtype": {"type": "DT_INT32"}}}, {"name": "StatefulPartitionedCall/transformer_2/decoder_2/decoder_layer_7/feed_forward_15/sequential_15/dense_32/Tensordot/Const_2", "op": "Const", "attr": {"value": {"tensor": {"dtype": "DT_INT32", "tensorShape": {"dim": [{"size": "1"}]}}}, "dtype": {"type": "DT_INT32"}}}, {"name": "StatefulPartitionedCall/transformer_2/decoder_2/decoder_layer_7/feed_forward_15/sequential_15/dense_32/Tensordot/concat_1/axis", "op": "Const", "attr": {"value": {"tensor": {"dtype": "DT_INT32", "tensorShape": {}}}, "dtype": {"type": "DT_INT32"}}}, {"name": "StatefulPartitionedCall/transformer_2/decoder_2/decoder_layer_7/feed_forward_15/sequential_15/dense_32/BiasAdd/ReadVariableOp", "op": "Const", "attr": {"value": {"tensor": {"dtype": "DT_FLOAT", "tensorShape": {"dim": [{"size": "2048"}]}}}, "dtype": {"type": "DT_FLOAT"}}}, {"name": "StatefulPartitionedCall/transformer_2/decoder_2/decoder_layer_7/feed_forward_15/sequential_15/dense_33/Tensordot/free", "op": "Const", "attr": {"value": {"tensor": {"dtype": "DT_INT32", "tensorShape": {"dim": [{"size": "2"}]}}}, "dtype": {"type": "DT_INT32"}}}, {"name": "StatefulPartitionedCall/transformer_2/decoder_2/decoder_layer_7/feed_forward_15/sequential_15/dense_33/Tensordot/GatherV2/axis", "op": "Const", "attr": {"value": {"tensor": {"dtype": "DT_INT32", "tensorShape": {}}}, "dtype": {"type": "DT_INT32"}}}, {"name": "StatefulPartitionedCall/transformer_2/decoder_2/decoder_layer_7/feed_forward_15/sequential_15/dense_33/Tensordot/Const_2", "op": "Const", "attr": {"value": {"tensor": {"dtype": "DT_INT32", "tensorShape": {"dim": [{"size": "1"}]}}}, "dtype": {"type": "DT_INT32"}}}, {"name": "StatefulPartitionedCall/transformer_2/decoder_2/decoder_layer_7/feed_forward_15/sequential_15/dense_33/Tensordot/concat_1/axis", "op": "Const", "attr": {"value": {"tensor": {"dtype": "DT_INT32", "tensorShape": {}}}, "dtype": {"type": "DT_INT32"}}}, {"name": "StatefulPartitionedCall/transformer_2/decoder_2/decoder_layer_7/feed_forward_15/sequential_15/dense_33/BiasAdd/ReadVariableOp", "op": "Const", "attr": {"value": {"tensor": {"dtype": "DT_FLOAT", "tensorShape": {"dim": [{"size": "128"}]}}}, "dtype": {"type": "DT_FLOAT"}}}, {"name": "StatefulPartitionedCall/transformer_2/decoder_2/decoder_layer_7/feed_forward_15/layer_normalization_39/mul_3/ReadVariableOp", "op": "Const", "attr": {"value": {"tensor": {"dtype": "DT_FLOAT", "tensorShape": {"dim": [{"size": "128"}]}}}, "dtype": {"type": "DT_FLOAT"}}}, {"name": "StatefulPartitionedCall/transformer_2/decoder_2/decoder_layer_7/feed_forward_15/layer_normalization_39/add/ReadVariableOp", "op": "Const", "attr": {"value": {"tensor": {"dtype": "DT_FLOAT", "tensorShape": {"dim": [{"size": "128"}]}}}, "dtype": {"type": "DT_FLOAT"}}}, {"name": "StatefulPartitionedCall/transformer_2/dense_34/Tensordot/free", "op": "Const", "attr": {"value": {"tensor": {"dtype": "DT_INT32", "tensorShape": {"dim": [{"size": "2"}]}}}, "dtype": {"type": "DT_INT32"}}}, {"name": "StatefulPartitionedCall/transformer_2/dense_34/Tensordot/GatherV2/axis", "op": "Const", "attr": {"value": {"tensor": {"dtype": "DT_INT32", "tensorShape": {}}}, "dtype": {"type": "DT_INT32"}}}, {"name": "StatefulPartitionedCall/transformer_2/dense_34/Tensordot/Const_2", "op": "Const", "attr": {"value": {"tensor": {"dtype": "DT_INT32", "tensorShape": {"dim": [{"size": "1"}]}}}, "dtype": {"type": "DT_INT32"}}}, {"name": "StatefulPartitionedCall/transformer_2/dense_34/Tensordot/concat_1/axis", "op": "Const", "attr": {"value": {"tensor": {"dtype": "DT_INT32", "tensorShape": {}}}, "dtype": {"type": "DT_INT32"}}}, {"name": "StatefulPartitionedCall/transformer_2/dense_34/BiasAdd/ReadVariableOp", "op": "Const", "attr": {"value": {"tensor": {"dtype": "DT_FLOAT", "tensorShape": {"dim": [{"size": "1000"}]}}}, "dtype": {"type": "DT_FLOAT"}}}, {"name": "input_5", "op": "Placeholder", "attr": {"shape": {"shape": {"dim": [{"size": "-1"}, {"size": "-1"}]}}, "dtype": {"type": "DT_FLOAT"}}}, {"name": "input_6", "op": "Placeholder", "attr": {"shape": {"shape": {"dim": [{"size": "-1"}, {"size": "-1"}]}}, "dtype": {"type": "DT_FLOAT"}}}, {"name": "StatefulPartitionedCall/transformer_2/encoder_2/positional_embedding_4/embedding_4/Cast", "op": "Cast", "input": ["input_5"], "attr": {"SrcT": {"type": "DT_FLOAT"}, "DstT": {"type": "DT_INT32"}, "Truncate": {"b": false}}}, {"name": "StatefulPartitionedCall/transformer_2/encoder_2/positional_embedding_4/Shape", "op": "Shape", "input": ["input_5"], "attr": {"T": {"type": "DT_FLOAT"}, "out_type": {"type": "DT_INT32"}}, "experimentalType": {"typeId": "TFT_PRODUCT", "args": [{"typeId": "TFT_SHAPE_TENSOR", "args": [{"typeId": "TFT_INT32"}]}]}}, {"name": "StatefulPartitionedCall/transformer_2/decoder_2/positional_embedding_5/embedding_5/Cast", "op": "Cast", "input": ["input_6"], "attr": {"SrcT": {"type": "DT_FLOAT"}, "DstT": {"type": "DT_INT32"}, "Truncate": {"b": false}}}, {"name": "StatefulPartitionedCall/transformer_2/decoder_2/positional_embedding_5/Shape", "op": "Shape", "input": ["input_6"], "attr": {"T": {"type": "DT_FLOAT"}, "out_type": {"type": "DT_INT32"}}, "experimentalType": {"typeId": "TFT_PRODUCT", "args": [{"typeId": "TFT_SHAPE_TENSOR", "args": [{"typeId": "TFT_INT32"}]}]}}, {"name": "StatefulPartitionedCall/transformer_2/encoder_2/positional_embedding_4/embedding_4/embedding_lookup", "op": "GatherV2", "input": ["unknown", "StatefulPartitionedCall/transformer_2/encoder_2/positional_embedding_4/embedding_4/Cast", "StatefulPartitionedCall/transformer_2/encoder_2/positional_embedding_4/embedding_4/embedding_lookup/axis"], "attr": {"Tparams": {"type": "DT_FLOAT"}, "Taxis": {"type": "DT_INT32"}, "Tindices": {"type": "DT_INT32"}, "batch_dims": {"i": "0"}, "_has_manual_control_dependencies": {"b": true}}}, {"name": "StatefulPartitionedCall/transformer_2/encoder_2/positional_embedding_4/strided_slice", "op": "StridedSlice", "input": ["StatefulPartitionedCall/transformer_2/encoder_2/positional_embedding_4/Shape", "StatefulPartitionedCall/transformer_2/encoder_2/positional_embedding_4/strided_slice/stack", "StatefulPartitionedCall/transformer_2/encoder_2/positional_embedding_4/strided_slice/stack_1", "StatefulPartitionedCall/transformer_2/encoder_2/positional_embedding_4/strided_slice/stack_2"], "attr": {"shrink_axis_mask": {"i": "1"}, "new_axis_mask": {"i": "0"}, "Index": {"type": "DT_INT32"}, "begin_mask": {"i": "0"}, "end_mask": {"i": "0"}, "T": {"type": "DT_INT32"}, "ellipsis_mask": {"i": "0"}}}, {"name": "StatefulPartitionedCall/transformer_2/decoder_2/positional_embedding_5/embedding_5/embedding_lookup", "op": "GatherV2", "input": ["unknown_33", "StatefulPartitionedCall/transformer_2/decoder_2/positional_embedding_5/embedding_5/Cast", "StatefulPartitionedCall/transformer_2/decoder_2/positional_embedding_5/embedding_5/embedding_lookup/axis"], "attr": {"Taxis": {"type": "DT_INT32"}, "Tparams": {"type": "DT_FLOAT"}, "Tindices": {"type": "DT_INT32"}, "_has_manual_control_dependencies": {"b": true}, "batch_dims": {"i": "0"}}}, {"name": "StatefulPartitionedCall/transformer_2/decoder_2/positional_embedding_5/strided_slice", "op": "StridedSlice", "input": ["StatefulPartitionedCall/transformer_2/decoder_2/positional_embedding_5/Shape", "StatefulPartitionedCall/transformer_2/decoder_2/positional_embedding_5/strided_slice/stack", "StatefulPartitionedCall/transformer_2/decoder_2/positional_embedding_5/strided_slice/stack_1", "StatefulPartitionedCall/transformer_2/decoder_2/positional_embedding_5/strided_slice/stack_2"], "attr": {"shrink_axis_mask": {"i": "1"}, "Index": {"type": "DT_INT32"}, "new_axis_mask": {"i": "0"}, "begin_mask": {"i": "0"}, "T": {"type": "DT_INT32"}, "end_mask": {"i": "0"}, "ellipsis_mask": {"i": "0"}}}, {"name": "StatefulPartitionedCall/transformer_2/encoder_2/positional_embedding_4/mul", "op": "Mul", "input": ["StatefulPartitionedCall/transformer_2/encoder_2/positional_embedding_4/embedding_4/embedding_lookup", "StatefulPartitionedCall/transformer_2/encoder_2/positional_embedding_4/Sqrt"], "attr": {"T": {"type": "DT_FLOAT"}}}, {"name": "StatefulPartitionedCall/transformer_2/encoder_2/positional_embedding_4/strided_slice_1/stack_1", "op": "Pack", "input": ["StatefulPartitionedCall/transformer_2/encoder_2/positional_embedding_4/strided_slice_1/stack_1/0", "StatefulPartitionedCall/transformer_2/encoder_2/positional_embedding_4/strided_slice", "StatefulPartitionedCall/transformer_2/encoder_2/positional_embedding_4/strided_slice_1/stack_1/2"], "attr": {"N": {"i": "3"}, "axis": {"i": "0"}, "T": {"type": "DT_INT32"}}}, {"name": "StatefulPartitionedCall/transformer_2/decoder_2/positional_embedding_5/mul", "op": "Mul", "input": ["StatefulPartitionedCall/transformer_2/decoder_2/positional_embedding_5/embedding_5/embedding_lookup", "StatefulPartitionedCall/transformer_2/decoder_2/positional_embedding_5/Sqrt"], "attr": {"T": {"type": "DT_FLOAT"}}}, {"name": "StatefulPartitionedCall/transformer_2/decoder_2/positional_embedding_5/strided_slice_1/stack_1", "op": "Pack", "input": ["StatefulPartitionedCall/transformer_2/decoder_2/positional_embedding_5/strided_slice_1/stack_1/0", "StatefulPartitionedCall/transformer_2/decoder_2/positional_embedding_5/strided_slice", "StatefulPartitionedCall/transformer_2/decoder_2/positional_embedding_5/strided_slice_1/stack_1/2"], "attr": {"N": {"i": "3"}, "axis": {"i": "0"}, "T": {"type": "DT_INT32"}}}, {"name": "StatefulPartitionedCall/transformer_2/encoder_2/positional_embedding_4/strided_slice_1", "op": "StridedSlice", "input": ["unknown_0", "StatefulPartitionedCall/transformer_2/encoder_2/positional_embedding_4/strided_slice_1/stack", "StatefulPartitionedCall/transformer_2/encoder_2/positional_embedding_4/strided_slice_1/stack_1", "StatefulPartitionedCall/transformer_2/encoder_2/positional_embedding_4/strided_slice_1/stack_2"], "attr": {"shrink_axis_mask": {"i": "0"}, "new_axis_mask": {"i": "1"}, "Index": {"type": "DT_INT32"}, "begin_mask": {"i": "6"}, "T": {"type": "DT_FLOAT"}, "end_mask": {"i": "4"}, "ellipsis_mask": {"i": "0"}}}, {"name": "StatefulPartitionedCall/transformer_2/decoder_2/positional_embedding_5/strided_slice_1", "op": "StridedSlice", "input": ["unknown_34", "StatefulPartitionedCall/transformer_2/decoder_2/positional_embedding_5/strided_slice_1/stack", "StatefulPartitionedCall/transformer_2/decoder_2/positional_embedding_5/strided_slice_1/stack_1", "StatefulPartitionedCall/transformer_2/decoder_2/positional_embedding_5/strided_slice_1/stack_2"], "attr": {"shrink_axis_mask": {"i": "0"}, "new_axis_mask": {"i": "1"}, "Index": {"type": "DT_INT32"}, "begin_mask": {"i": "6"}, "end_mask": {"i": "4"}, "T": {"type": "DT_FLOAT"}, "ellipsis_mask": {"i": "0"}}}, {"name": "StatefulPartitionedCall/transformer_2/encoder_2/positional_embedding_4/add", "op": "AddV2", "input": ["StatefulPartitionedCall/transformer_2/encoder_2/positional_embedding_4/mul", "StatefulPartitionedCall/transformer_2/encoder_2/positional_embedding_4/strided_slice_1"], "attr": {"T": {"type": "DT_FLOAT"}}}, {"name": "StatefulPartitionedCall/transformer_2/decoder_2/positional_embedding_5/add", "op": "AddV2", "input": ["StatefulPartitionedCall/transformer_2/decoder_2/positional_embedding_5/mul", "StatefulPartitionedCall/transformer_2/decoder_2/positional_embedding_5/strided_slice_1"], "attr": {"T": {"type": "DT_FLOAT"}}}, {"name": "StatefulPartitionedCall/transformer_2/encoder_2/encoder_layer_6/global_self_attention_6/multi_head_attention_18/key/einsum/Einsum", "op": "Einsum", "input": ["StatefulPartitionedCall/transformer_2/encoder_2/positional_embedding_4/add", "StatefulPartitionedCall/transformer_2/encoder_2/encoder_layer_6/global_self_attention_6/multi_head_attention_18/key/einsum/Einsum/ReadVariableOp"], "attr": {"equation": {"s": "YWJjLGNkZS0+YWJkZQ=="}, "N": {"i": "2"}, "T": {"type": "DT_FLOAT"}}}, {"name": "StatefulPartitionedCall/transformer_2/encoder_2/encoder_layer_6/global_self_attention_6/multi_head_attention_18/query/einsum/Einsum", "op": "Einsum", "input": ["StatefulPartitionedCall/transformer_2/encoder_2/positional_embedding_4/add", "StatefulPartitionedCall/transformer_2/encoder_2/encoder_layer_6/global_self_attention_6/multi_head_attention_18/query/einsum/Einsum/ReadVariableOp"], "attr": {"N": {"i": "2"}, "equation": {"s": "YWJjLGNkZS0+YWJkZQ=="}, "T": {"type": "DT_FLOAT"}}}, {"name": "StatefulPartitionedCall/transformer_2/encoder_2/encoder_layer_6/global_self_attention_6/multi_head_attention_18/value/einsum/Einsum", "op": "Einsum", "input": ["StatefulPartitionedCall/transformer_2/encoder_2/positional_embedding_4/add", "StatefulPartitionedCall/transformer_2/encoder_2/encoder_layer_6/global_self_attention_6/multi_head_attention_18/value/einsum/Einsum/ReadVariableOp"], "attr": {"equation": {"s": "YWJjLGNkZS0+YWJkZQ=="}, "N": {"i": "2"}, "T": {"type": "DT_FLOAT"}}}, {"name": "StatefulPartitionedCall/transformer_2/decoder_2/decoder_layer_6/causal_self_attention_6/multi_head_attention_20/key/einsum/Einsum", "op": "Einsum", "input": ["StatefulPartitionedCall/transformer_2/decoder_2/positional_embedding_5/add", "StatefulPartitionedCall/transformer_2/decoder_2/decoder_layer_6/causal_self_attention_6/multi_head_attention_20/key/einsum/Einsum/ReadVariableOp"], "attr": {"N": {"i": "2"}, "equation": {"s": "YWJjLGNkZS0+YWJkZQ=="}, "T": {"type": "DT_FLOAT"}}}, {"name": "StatefulPartitionedCall/transformer_2/decoder_2/decoder_layer_6/causal_self_attention_6/multi_head_attention_20/query/einsum/Einsum", "op": "Einsum", "input": ["StatefulPartitionedCall/transformer_2/decoder_2/positional_embedding_5/add", "StatefulPartitionedCall/transformer_2/decoder_2/decoder_layer_6/causal_self_attention_6/multi_head_attention_20/query/einsum/Einsum/ReadVariableOp"], "attr": {"equation": {"s": "YWJjLGNkZS0+YWJkZQ=="}, "N": {"i": "2"}, "T": {"type": "DT_FLOAT"}}}, {"name": "StatefulPartitionedCall/transformer_2/decoder_2/decoder_layer_6/causal_self_attention_6/multi_head_attention_20/Shape", "op": "Shape", "input": ["StatefulPartitionedCall/transformer_2/decoder_2/positional_embedding_5/add"], "attr": {"T": {"type": "DT_FLOAT"}, "out_type": {"type": "DT_INT32"}}, "experimentalType": {"typeId": "TFT_PRODUCT", "args": [{"typeId": "TFT_SHAPE_TENSOR", "args": [{"typeId": "TFT_INT32"}]}]}}, {"name": "StatefulPartitionedCall/transformer_2/decoder_2/decoder_layer_6/causal_self_attention_6/multi_head_attention_20/Shape_1", "op": "Shape", "input": ["StatefulPartitionedCall/transformer_2/decoder_2/positional_embedding_5/add"], "attr": {"T": {"type": "DT_FLOAT"}, "out_type": {"type": "DT_INT32"}}, "experimentalType": {"typeId": "TFT_PRODUCT", "args": [{"typeId": "TFT_SHAPE_TENSOR", "args": [{"typeId": "TFT_INT32"}]}]}}, {"name": "StatefulPartitionedCall/transformer_2/decoder_2/decoder_layer_6/causal_self_attention_6/multi_head_attention_20/value/einsum/Einsum", "op": "Einsum", "input": ["StatefulPartitionedCall/transformer_2/decoder_2/positional_embedding_5/add", "StatefulPartitionedCall/transformer_2/decoder_2/decoder_layer_6/causal_self_attention_6/multi_head_attention_20/value/einsum/Einsum/ReadVariableOp"], "attr": {"equation": {"s": "YWJjLGNkZS0+YWJkZQ=="}, "N": {"i": "2"}, "T": {"type": "DT_FLOAT"}}}, {"name": "StatefulPartitionedCall/transformer_2/encoder_2/encoder_layer_6/global_self_attention_6/multi_head_attention_18/key/add", "op": "AddV2", "input": ["StatefulPartitionedCall/transformer_2/encoder_2/encoder_layer_6/global_self_attention_6/multi_head_attention_18/key/einsum/Einsum", "StatefulPartitionedCall/transformer_2/encoder_2/encoder_layer_6/global_self_attention_6/multi_head_attention_18/key/add/ReadVariableOp"], "attr": {"T": {"type": "DT_FLOAT"}}}, {"name": "StatefulPartitionedCall/transformer_2/encoder_2/encoder_layer_6/global_self_attention_6/multi_head_attention_18/query/add", "op": "AddV2", "input": ["StatefulPartitionedCall/transformer_2/encoder_2/encoder_layer_6/global_self_attention_6/multi_head_attention_18/query/einsum/Einsum", "StatefulPartitionedCall/transformer_2/encoder_2/encoder_layer_6/global_self_attention_6/multi_head_attention_18/query/add/ReadVariableOp"], "attr": {"T": {"type": "DT_FLOAT"}}}, {"name": "StatefulPartitionedCall/transformer_2/encoder_2/encoder_layer_6/global_self_attention_6/multi_head_attention_18/value/add", "op": "AddV2", "input": ["StatefulPartitionedCall/transformer_2/encoder_2/encoder_layer_6/global_self_attention_6/multi_head_attention_18/value/einsum/Einsum", "StatefulPartitionedCall/transformer_2/encoder_2/encoder_layer_6/global_self_attention_6/multi_head_attention_18/value/add/ReadVariableOp"], "attr": {"T": {"type": "DT_FLOAT"}}}, {"name": "StatefulPartitionedCall/transformer_2/decoder_2/decoder_layer_6/causal_self_attention_6/multi_head_attention_20/key/add", "op": "AddV2", "input": ["StatefulPartitionedCall/transformer_2/decoder_2/decoder_layer_6/causal_self_attention_6/multi_head_attention_20/key/einsum/Einsum", "StatefulPartitionedCall/transformer_2/decoder_2/decoder_layer_6/causal_self_attention_6/multi_head_attention_20/key/add/ReadVariableOp"], "attr": {"T": {"type": "DT_FLOAT"}}}, {"name": "StatefulPartitionedCall/transformer_2/decoder_2/decoder_layer_6/causal_self_attention_6/multi_head_attention_20/query/add", "op": "AddV2", "input": ["StatefulPartitionedCall/transformer_2/decoder_2/decoder_layer_6/causal_self_attention_6/multi_head_attention_20/query/einsum/Einsum", "StatefulPartitionedCall/transformer_2/decoder_2/decoder_layer_6/causal_self_attention_6/multi_head_attention_20/query/add/ReadVariableOp"], "attr": {"T": {"type": "DT_FLOAT"}}}, {"name": "StatefulPartitionedCall/transformer_2/decoder_2/decoder_layer_6/causal_self_attention_6/multi_head_attention_20/strided_slice", "op": "StridedSlice", "input": ["StatefulPartitionedCall/transformer_2/decoder_2/decoder_layer_6/causal_self_attention_6/multi_head_attention_20/Shape", "StatefulPartitionedCall/transformer_2/decoder_2/decoder_layer_6/causal_self_attention_6/multi_head_attention_20/strided_slice/stack", "StatefulPartitionedCall/transformer_2/decoder_2/decoder_layer_6/causal_self_attention_6/multi_head_attention_20/strided_slice/stack_1", "StatefulPartitionedCall/transformer_2/decoder_2/decoder_layer_6/causal_self_attention_6/multi_head_attention_20/strided_slice/stack_2"], "attr": {"shrink_axis_mask": {"i": "1"}, "Index": {"type": "DT_INT32"}, "new_axis_mask": {"i": "0"}, "begin_mask": {"i": "0"}, "T": {"type": "DT_INT32"}, "end_mask": {"i": "0"}, "ellipsis_mask": {"i": "0"}}}, {"name": "StatefulPartitionedCall/transformer_2/decoder_2/decoder_layer_6/causal_self_attention_6/multi_head_attention_20/strided_slice_1", "op": "StridedSlice", "input": ["StatefulPartitionedCall/transformer_2/decoder_2/decoder_layer_6/causal_self_attention_6/multi_head_attention_20/Shape_1", "StatefulPartitionedCall/transformer_2/decoder_2/decoder_layer_6/causal_self_attention_6/multi_head_attention_20/strided_slice_1/stack", "StatefulPartitionedCall/transformer_2/decoder_2/decoder_layer_6/causal_self_attention_6/multi_head_attention_20/strided_slice_1/stack_1", "StatefulPartitionedCall/transformer_2/decoder_2/decoder_layer_6/causal_self_attention_6/multi_head_attention_20/strided_slice_1/stack_2"], "attr": {"shrink_axis_mask": {"i": "1"}, "Index": {"type": "DT_INT32"}, "new_axis_mask": {"i": "0"}, "begin_mask": {"i": "0"}, "end_mask": {"i": "0"}, "T": {"type": "DT_INT32"}, "ellipsis_mask": {"i": "0"}}}, {"name": "StatefulPartitionedCall/transformer_2/decoder_2/decoder_layer_6/causal_self_attention_6/multi_head_attention_20/value/add", "op": "AddV2", "input": ["StatefulPartitionedCall/transformer_2/decoder_2/decoder_layer_6/causal_self_attention_6/multi_head_attention_20/value/einsum/Einsum", "StatefulPartitionedCall/transformer_2/decoder_2/decoder_layer_6/causal_self_attention_6/multi_head_attention_20/value/add/ReadVariableOp"], "attr": {"T": {"type": "DT_FLOAT"}}}, {"name": "StatefulPartitionedCall/transformer_2/encoder_2/encoder_layer_6/global_self_attention_6/multi_head_attention_18/Mul", "op": "Mul", "input": ["StatefulPartitionedCall/transformer_2/encoder_2/encoder_layer_6/global_self_attention_6/multi_head_attention_18/query/add", "StatefulPartitionedCall/transformer_2/encoder_2/encoder_layer_6/global_self_attention_6/multi_head_attention_18/Mul/y"], "attr": {"T": {"type": "DT_FLOAT"}}}, {"name": "StatefulPartitionedCall/transformer_2/decoder_2/decoder_layer_6/causal_self_attention_6/multi_head_attention_20/Mul", "op": "Mul", "input": ["StatefulPartitionedCall/transformer_2/decoder_2/decoder_layer_6/causal_self_attention_6/multi_head_attention_20/query/add", "StatefulPartitionedCall/transformer_2/decoder_2/decoder_layer_6/causal_self_attention_6/multi_head_attention_20/Mul/y"], "attr": {"T": {"type": "DT_FLOAT"}}}, {"name": "StatefulPartitionedCall/transformer_2/decoder_2/decoder_layer_6/causal_self_attention_6/multi_head_attention_20/ones/packed", "op": "Pack", "input": ["StatefulPartitionedCall/transformer_2/decoder_2/decoder_layer_6/causal_self_attention_6/multi_head_attention_20/ones/packed/0", "StatefulPartitionedCall/transformer_2/decoder_2/decoder_layer_6/causal_self_attention_6/multi_head_attention_20/strided_slice", "StatefulPartitionedCall/transformer_2/decoder_2/decoder_layer_6/causal_self_attention_6/multi_head_attention_20/strided_slice_1"], "attr": {"N": {"i": "3"}, "axis": {"i": "0"}, "T": {"type": "DT_INT32"}}}, {"name": "StatefulPartitionedCall/transformer_2/encoder_2/encoder_layer_6/global_self_attention_6/multi_head_attention_18/einsum/Einsum", "op": "Einsum", "input": ["StatefulPartitionedCall/transformer_2/encoder_2/encoder_layer_6/global_self_attention_6/multi_head_attention_18/key/add", "StatefulPartitionedCall/transformer_2/encoder_2/encoder_layer_6/global_self_attention_6/multi_head_attention_18/Mul"], "attr": {"equation": {"s": "YWVjZCxhYmNkLT5hY2Jl"}, "N": {"i": "2"}, "T": {"type": "DT_FLOAT"}}}, {"name": "StatefulPartitionedCall/transformer_2/decoder_2/decoder_layer_6/causal_self_attention_6/multi_head_attention_20/einsum/Einsum", "op": "Einsum", "input": ["StatefulPartitionedCall/transformer_2/decoder_2/decoder_layer_6/causal_self_attention_6/multi_head_attention_20/key/add", "StatefulPartitionedCall/transformer_2/decoder_2/decoder_layer_6/causal_self_attention_6/multi_head_attention_20/Mul"], "attr": {"equation": {"s": "YWVjZCxhYmNkLT5hY2Jl"}, "N": {"i": "2"}, "T": {"type": "DT_FLOAT"}}}, {"name": "StatefulPartitionedCall/transformer_2/decoder_2/decoder_layer_6/causal_self_attention_6/multi_head_attention_20/ones", "op": "Fill", "input": ["StatefulPartitionedCall/transformer_2/decoder_2/decoder_layer_6/causal_self_attention_6/multi_head_attention_20/ones/packed", "StatefulPartitionedCall/transformer_2/decoder_2/decoder_layer_6/causal_self_attention_6/multi_head_attention_20/ones/Const"], "attr": {"T": {"type": "DT_BOOL"}, "index_type": {"type": "DT_INT32"}}}, {"name": "StatefulPartitionedCall/transformer_2/encoder_2/encoder_layer_6/global_self_attention_6/multi_head_attention_18/softmax/Softmax", "op": "Softmax", "input": ["StatefulPartitionedCall/transformer_2/encoder_2/encoder_layer_6/global_self_attention_6/multi_head_attention_18/einsum/Einsum"], "attr": {"T": {"type": "DT_FLOAT"}}}, {"name": "StatefulPartitionedCall/transformer_2/decoder_2/decoder_layer_6/causal_self_attention_6/multi_head_attention_20/MatrixBandPart", "op": "MatrixBandPart", "input": ["StatefulPartitionedCall/transformer_2/decoder_2/decoder_layer_6/causal_self_attention_6/multi_head_attention_20/ones", "StatefulPartitionedCall/transformer_2/decoder_2/decoder_layer_6/causal_self_attention_6/multi_head_attention_20/MatrixBandPart/num_lower", "StatefulPartitionedCall/transformer_2/decoder_2/decoder_layer_6/causal_self_attention_6/multi_head_attention_20/MatrixBandPart/num_upper"], "attr": {"T": {"type": "DT_BOOL"}, "Tindex": {"type": "DT_INT32"}}}, {"name": "StatefulPartitionedCall/transformer_2/encoder_2/encoder_layer_6/global_self_attention_6/multi_head_attention_18/einsum_1/Einsum", "op": "Einsum", "input": ["StatefulPartitionedCall/transformer_2/encoder_2/encoder_layer_6/global_self_attention_6/multi_head_attention_18/softmax/Softmax", "StatefulPartitionedCall/transformer_2/encoder_2/encoder_layer_6/global_self_attention_6/multi_head_attention_18/value/add"], "attr": {"equation": {"s": "YWNiZSxhZWNkLT5hYmNk"}, "N": {"i": "2"}, "T": {"type": "DT_FLOAT"}}}, {"name": "StatefulPartitionedCall/transformer_2/decoder_2/decoder_layer_6/causal_self_attention_6/multi_head_attention_20/ExpandDims", "op": "ExpandDims", "input": ["StatefulPartitionedCall/transformer_2/decoder_2/decoder_layer_6/causal_self_attention_6/multi_head_attention_20/MatrixBandPart", "StatefulPartitionedCall/transformer_2/decoder_2/decoder_layer_6/causal_self_attention_6/multi_head_attention_20/ExpandDims/dim"], "attr": {"Tdim": {"type": "DT_INT32"}, "T": {"type": "DT_BOOL"}}}, {"name": "StatefulPartitionedCall/transformer_2/encoder_2/encoder_layer_6/global_self_attention_6/multi_head_attention_18/attention_output/einsum/Einsum", "op": "Einsum", "input": ["StatefulPartitionedCall/transformer_2/encoder_2/encoder_layer_6/global_self_attention_6/multi_head_attention_18/einsum_1/Einsum", "StatefulPartitionedCall/transformer_2/encoder_2/encoder_layer_6/global_self_attention_6/multi_head_attention_18/attention_output/einsum/Einsum/ReadVariableOp"], "attr": {"N": {"i": "2"}, "equation": {"s": "YWJjZCxjZGUtPmFiZQ=="}, "T": {"type": "DT_FLOAT"}}}, {"name": "StatefulPartitionedCall/transformer_2/decoder_2/decoder_layer_6/causal_self_attention_6/multi_head_attention_20/softmax_2/Cast", "op": "Cast", "input": ["StatefulPartitionedCall/transformer_2/decoder_2/decoder_layer_6/causal_self_attention_6/multi_head_attention_20/ExpandDims"], "attr": {"SrcT": {"type": "DT_BOOL"}, "DstT": {"type": "DT_FLOAT"}, "Truncate": {"b": false}}}, {"name": "StatefulPartitionedCall/transformer_2/encoder_2/encoder_layer_6/global_self_attention_6/multi_head_attention_18/attention_output/add", "op": "AddV2", "input": ["StatefulPartitionedCall/transformer_2/encoder_2/encoder_layer_6/global_self_attention_6/multi_head_attention_18/attention_output/einsum/Einsum", "StatefulPartitionedCall/transformer_2/encoder_2/encoder_layer_6/global_self_attention_6/multi_head_attention_18/attention_output/add/ReadVariableOp"], "attr": {"T": {"type": "DT_FLOAT"}}}, {"name": "StatefulPartitionedCall/transformer_2/decoder_2/decoder_layer_6/causal_self_attention_6/multi_head_attention_20/softmax_2/sub", "op": "Sub", "input": ["StatefulPartitionedCall/transformer_2/decoder_2/decoder_layer_6/causal_self_attention_6/multi_head_attention_20/softmax_2/sub/x", "StatefulPartitionedCall/transformer_2/decoder_2/decoder_layer_6/causal_self_attention_6/multi_head_attention_20/softmax_2/Cast"], "attr": {"T": {"type": "DT_FLOAT"}}}, {"name": "StatefulPartitionedCall/transformer_2/encoder_2/encoder_layer_6/global_self_attention_6/add_30/add", "op": "AddV2", "input": ["StatefulPartitionedCall/transformer_2/encoder_2/positional_embedding_4/add", "StatefulPartitionedCall/transformer_2/encoder_2/encoder_layer_6/global_self_attention_6/multi_head_attention_18/attention_output/add"], "attr": {"T": {"type": "DT_FLOAT"}}}, {"name": "StatefulPartitionedCall/transformer_2/decoder_2/decoder_layer_6/causal_self_attention_6/multi_head_attention_20/softmax_2/mul", "op": "Mul", "input": ["StatefulPartitionedCall/transformer_2/decoder_2/decoder_layer_6/causal_self_attention_6/multi_head_attention_20/softmax_2/sub", "StatefulPartitionedCall/transformer_2/decoder_2/decoder_layer_6/causal_self_attention_6/multi_head_attention_20/softmax_2/mul/y"], "attr": {"T": {"type": "DT_FLOAT"}}}, {"name": "StatefulPartitionedCall/transformer_2/encoder_2/encoder_layer_6/global_self_attention_6/layer_normalization_30/Shape", "op": "Shape", "input": ["StatefulPartitionedCall/transformer_2/encoder_2/encoder_layer_6/global_self_attention_6/add_30/add"], "attr": {"T": {"type": "DT_FLOAT"}, "out_type": {"type": "DT_INT32"}}, "experimentalType": {"typeId": "TFT_PRODUCT", "args": [{"typeId": "TFT_SHAPE_TENSOR", "args": [{"typeId": "TFT_INT32"}]}]}}, {"name": "StatefulPartitionedCall/transformer_2/decoder_2/decoder_layer_6/causal_self_attention_6/multi_head_attention_20/softmax_2/add", "op": "AddV2", "input": ["StatefulPartitionedCall/transformer_2/decoder_2/decoder_layer_6/causal_self_attention_6/multi_head_attention_20/einsum/Einsum", "StatefulPartitionedCall/transformer_2/decoder_2/decoder_layer_6/causal_self_attention_6/multi_head_attention_20/softmax_2/mul"], "attr": {"T": {"type": "DT_FLOAT"}}}, {"name": "StatefulPartitionedCall/transformer_2/encoder_2/encoder_layer_6/global_self_attention_6/layer_normalization_30/strided_slice_2", "op": "StridedSlice", "input": ["StatefulPartitionedCall/transformer_2/encoder_2/encoder_layer_6/global_self_attention_6/layer_normalization_30/Shape", "StatefulPartitionedCall/transformer_2/encoder_2/encoder_layer_6/global_self_attention_6/layer_normalization_30/strided_slice_2/stack", "StatefulPartitionedCall/transformer_2/encoder_2/encoder_layer_6/global_self_attention_6/layer_normalization_30/strided_slice_2/stack_1", "StatefulPartitionedCall/transformer_2/encoder_2/encoder_layer_6/global_self_attention_6/layer_normalization_30/strided_slice_2/stack_2"], "attr": {"shrink_axis_mask": {"i": "1"}, "Index": {"type": "DT_INT32"}, "new_axis_mask": {"i": "0"}, "begin_mask": {"i": "0"}, "end_mask": {"i": "0"}, "T": {"type": "DT_INT32"}, "ellipsis_mask": {"i": "0"}}}, {"name": "StatefulPartitionedCall/transformer_2/encoder_2/encoder_layer_6/global_self_attention_6/layer_normalization_30/strided_slice", "op": "StridedSlice", "input": ["StatefulPartitionedCall/transformer_2/encoder_2/encoder_layer_6/global_self_attention_6/layer_normalization_30/Shape", "StatefulPartitionedCall/transformer_2/encoder_2/encoder_layer_6/global_self_attention_6/layer_normalization_30/strided_slice/stack", "StatefulPartitionedCall/transformer_2/encoder_2/encoder_layer_6/global_self_attention_6/layer_normalization_30/strided_slice/stack_1", "StatefulPartitionedCall/transformer_2/encoder_2/encoder_layer_6/global_self_attention_6/layer_normalization_30/strided_slice/stack_2"], "attr": {"shrink_axis_mask": {"i": "1"}, "new_axis_mask": {"i": "0"}, "Index": {"type": "DT_INT32"}, "begin_mask": {"i": "0"}, "T": {"type": "DT_INT32"}, "end_mask": {"i": "0"}, "ellipsis_mask": {"i": "0"}}}, {"name": "StatefulPartitionedCall/transformer_2/encoder_2/encoder_layer_6/global_self_attention_6/layer_normalization_30/strided_slice_1", "op": "StridedSlice", "input": ["StatefulPartitionedCall/transformer_2/encoder_2/encoder_layer_6/global_self_attention_6/layer_normalization_30/Shape", "StatefulPartitionedCall/transformer_2/encoder_2/encoder_layer_6/global_self_attention_6/layer_normalization_30/strided_slice_1/stack", "StatefulPartitionedCall/transformer_2/encoder_2/encoder_layer_6/global_self_attention_6/layer_normalization_30/strided_slice_1/stack_1", "StatefulPartitionedCall/transformer_2/encoder_2/encoder_layer_6/global_self_attention_6/layer_normalization_30/strided_slice_1/stack_2"], "attr": {"shrink_axis_mask": {"i": "1"}, "Index": {"type": "DT_INT32"}, "new_axis_mask": {"i": "0"}, "begin_mask": {"i": "0"}, "T": {"type": "DT_INT32"}, "end_mask": {"i": "0"}, "ellipsis_mask": {"i": "0"}}}, {"name": "StatefulPartitionedCall/transformer_2/decoder_2/decoder_layer_6/causal_self_attention_6/multi_head_attention_20/softmax_2/Softmax", "op": "Softmax", "input": ["StatefulPartitionedCall/transformer_2/decoder_2/decoder_layer_6/causal_self_attention_6/multi_head_attention_20/softmax_2/add"], "attr": {"T": {"type": "DT_FLOAT"}}}, {"name": "StatefulPartitionedCall/transformer_2/encoder_2/encoder_layer_6/global_self_attention_6/layer_normalization_30/mul_1", "op": "Mul", "input": ["StatefulPartitionedCall/transformer_2/encoder_2/encoder_layer_6/global_self_attention_6/layer_normalization_30/strided_slice", "StatefulPartitionedCall/transformer_2/encoder_2/encoder_layer_6/global_self_attention_6/layer_normalization_30/strided_slice_1"], "attr": {"T": {"type": "DT_INT32"}}}, {"name": "StatefulPartitionedCall/transformer_2/decoder_2/decoder_layer_6/causal_self_attention_6/multi_head_attention_20/einsum_1/Einsum", "op": "Einsum", "input": ["StatefulPartitionedCall/transformer_2/decoder_2/decoder_layer_6/causal_self_attention_6/multi_head_attention_20/softmax_2/Softmax", "StatefulPartitionedCall/transformer_2/decoder_2/decoder_layer_6/causal_self_attention_6/multi_head_attention_20/value/add"], "attr": {"equation": {"s": "YWNiZSxhZWNkLT5hYmNk"}, "N": {"i": "2"}, "T": {"type": "DT_FLOAT"}}}, {"name": "StatefulPartitionedCall/transformer_2/encoder_2/encoder_layer_6/global_self_attention_6/layer_normalization_30/Reshape/shape", "op": "Pack", "input": ["StatefulPartitionedCall/transformer_2/encoder_2/encoder_layer_6/global_self_attention_6/layer_normalization_30/Reshape/shape/0", "StatefulPartitionedCall/transformer_2/encoder_2/encoder_layer_6/global_self_attention_6/layer_normalization_30/mul_1", "StatefulPartitionedCall/transformer_2/encoder_2/encoder_layer_6/global_self_attention_6/layer_normalization_30/strided_slice_2", "StatefulPartitionedCall/transformer_2/encoder_2/encoder_layer_6/global_self_attention_6/layer_normalization_30/Reshape/shape/3"], "attr": {"N": {"i": "4"}, "axis": {"i": "0"}, "T": {"type": "DT_INT32"}}}, {"name": "ConstantFolding/StatefulPartitionedCall/transformer_2/encoder_2/encoder_layer_6/global_self_attention_6/layer_normalization_30/ones/packed_const_axis", "op": "Const", "input": ["^StatefulPartitionedCall/transformer_2/encoder_2/encoder_layer_6/global_self_attention_6/layer_normalization_30/mul_1"], "attr": {"value": {"tensor": {"dtype": "DT_INT32", "tensorShape": {}}}, "dtype": {"type": "DT_INT32"}}}, {"name": "ConstantFolding/StatefulPartitionedCall/transformer_2/encoder_2/encoder_layer_6/global_self_attention_6/layer_normalization_30/zeros/packed_const_axis", "op": "Const", "input": ["^StatefulPartitionedCall/transformer_2/encoder_2/encoder_layer_6/global_self_attention_6/layer_normalization_30/mul_1"], "attr": {"value": {"tensor": {"dtype": "DT_INT32", "tensorShape": {}}}, "dtype": {"type": "DT_INT32"}}}, {"name": "StatefulPartitionedCall/transformer_2/decoder_2/decoder_layer_6/causal_self_attention_6/multi_head_attention_20/attention_output/einsum/Einsum", "op": "Einsum", "input": ["StatefulPartitionedCall/transformer_2/decoder_2/decoder_layer_6/causal_self_attention_6/multi_head_attention_20/einsum_1/Einsum", "StatefulPartitionedCall/transformer_2/decoder_2/decoder_layer_6/causal_self_attention_6/multi_head_attention_20/attention_output/einsum/Einsum/ReadVariableOp"], "attr": {"N": {"i": "2"}, "equation": {"s": "YWJjZCxjZGUtPmFiZQ=="}, "T": {"type": "DT_FLOAT"}}}, {"name": "StatefulPartitionedCall/transformer_2/encoder_2/encoder_layer_6/global_self_attention_6/layer_normalization_30/Reshape", "op": "Reshape", "input": ["StatefulPartitionedCall/transformer_2/encoder_2/encoder_layer_6/global_self_attention_6/add_30/add", "StatefulPartitionedCall/transformer_2/encoder_2/encoder_layer_6/global_self_attention_6/layer_normalization_30/Reshape/shape"], "attr": {"T": {"type": "DT_FLOAT"}, "Tshape": {"type": "DT_INT32"}}}, {"name": "StatefulPartitionedCall/transformer_2/encoder_2/encoder_layer_6/global_self_attention_6/layer_normalization_30/ones/packed", "op": "ExpandDims", "input": ["StatefulPartitionedCall/transformer_2/encoder_2/encoder_layer_6/global_self_attention_6/layer_normalization_30/mul_1", "ConstantFolding/StatefulPartitionedCall/transformer_2/encoder_2/encoder_layer_6/global_self_attention_6/layer_normalization_30/ones/packed_const_axis"], "attr": {"Tdim": {"type": "DT_INT32"}, "T": {"type": "DT_INT32"}}}, {"name": "StatefulPartitionedCall/transformer_2/encoder_2/encoder_layer_6/global_self_attention_6/layer_normalization_30/zeros/packed", "op": "ExpandDims", "input": ["StatefulPartitionedCall/transformer_2/encoder_2/encoder_layer_6/global_self_attention_6/layer_normalization_30/mul_1", "ConstantFolding/StatefulPartitionedCall/transformer_2/encoder_2/encoder_layer_6/global_self_attention_6/layer_normalization_30/zeros/packed_const_axis"], "attr": {"Tdim": {"type": "DT_INT32"}, "T": {"type": "DT_INT32"}}}, {"name": "StatefulPartitionedCall/transformer_2/decoder_2/decoder_layer_6/causal_self_attention_6/multi_head_attention_20/attention_output/add", "op": "AddV2", "input": ["StatefulPartitionedCall/transformer_2/decoder_2/decoder_layer_6/causal_self_attention_6/multi_head_attention_20/attention_output/einsum/Einsum", "StatefulPartitionedCall/transformer_2/decoder_2/decoder_layer_6/causal_self_attention_6/multi_head_attention_20/attention_output/add/ReadVariableOp"], "attr": {"T": {"type": "DT_FLOAT"}}}, {"name": "StatefulPartitionedCall/transformer_2/encoder_2/encoder_layer_6/global_self_attention_6/layer_normalization_30/ones", "op": "Fill", "input": ["StatefulPartitionedCall/transformer_2/encoder_2/encoder_layer_6/global_self_attention_6/layer_normalization_30/ones/packed", "StatefulPartitionedCall/transformer_2/encoder_2/encoder_layer_6/global_self_attention_6/layer_normalization_30/ones/Const"], "attr": {"T": {"type": "DT_FLOAT"}, "index_type": {"type": "DT_INT32"}}}, {"name": "StatefulPartitionedCall/transformer_2/encoder_2/encoder_layer_6/global_self_attention_6/layer_normalization_30/zeros", "op": "Fill", "input": ["StatefulPartitionedCall/transformer_2/encoder_2/encoder_layer_6/global_self_attention_6/layer_normalization_30/zeros/packed", "StatefulPartitionedCall/transformer_2/encoder_2/encoder_layer_6/global_self_attention_6/layer_normalization_30/zeros/Const"], "attr": {"T": {"type": "DT_FLOAT"}, "index_type": {"type": "DT_INT32"}}}, {"name": "StatefulPartitionedCall/transformer_2/decoder_2/decoder_layer_6/causal_self_attention_6/add_34/add", "op": "AddV2", "input": ["StatefulPartitionedCall/transformer_2/decoder_2/positional_embedding_5/add", "StatefulPartitionedCall/transformer_2/decoder_2/decoder_layer_6/causal_self_attention_6/multi_head_attention_20/attention_output/add"], "attr": {"T": {"type": "DT_FLOAT"}}}, {"name": "StatefulPartitionedCall/transformer_2/encoder_2/encoder_layer_6/global_self_attention_6/layer_normalization_30/FusedBatchNormV3", "op": "FusedBatchNormV3", "input": ["StatefulPartitionedCall/transformer_2/encoder_2/encoder_layer_6/global_self_attention_6/layer_normalization_30/Reshape", "StatefulPartitionedCall/transformer_2/encoder_2/encoder_layer_6/global_self_attention_6/layer_normalization_30/ones", "StatefulPartitionedCall/transformer_2/encoder_2/encoder_layer_6/global_self_attention_6/layer_normalization_30/zeros", "StatefulPartitionedCall/transformer_2/encoder_2/encoder_layer_6/global_self_attention_6/layer_normalization_30/Const", "StatefulPartitionedCall/transformer_2/encoder_2/encoder_layer_6/global_self_attention_6/layer_normalization_30/Const_1"], "attr": {"exponential_avg_factor": {"f": 1.0}, "data_format": {"s": "TkNIVw=="}, "T": {"type": "DT_FLOAT"}, "U": {"type": "DT_FLOAT"}, "epsilon": {"f": 0.001}, "is_training": {"b": true}}}, {"name": "StatefulPartitionedCall/transformer_2/decoder_2/decoder_layer_6/causal_self_attention_6/layer_normalization_34/Shape", "op": "Shape", "input": ["StatefulPartitionedCall/transformer_2/decoder_2/decoder_layer_6/causal_self_attention_6/add_34/add"], "attr": {"T": {"type": "DT_FLOAT"}, "out_type": {"type": "DT_INT32"}}, "experimentalType": {"typeId": "TFT_PRODUCT", "args": [{"typeId": "TFT_SHAPE_TENSOR", "args": [{"typeId": "TFT_INT32"}]}]}}, {"name": "StatefulPartitionedCall/transformer_2/encoder_2/encoder_layer_6/global_self_attention_6/layer_normalization_30/Reshape_1", "op": "Reshape", "input": ["StatefulPartitionedCall/transformer_2/encoder_2/encoder_layer_6/global_self_attention_6/layer_normalization_30/FusedBatchNormV3", "StatefulPartitionedCall/transformer_2/encoder_2/encoder_layer_6/global_self_attention_6/layer_normalization_30/Shape"], "attr": {"T": {"type": "DT_FLOAT"}, "Tshape": {"type": "DT_INT32"}}}, {"name": "StatefulPartitionedCall/transformer_2/decoder_2/decoder_layer_6/causal_self_attention_6/layer_normalization_34/strided_slice_2", "op": "StridedSlice", "input": ["StatefulPartitionedCall/transformer_2/decoder_2/decoder_layer_6/causal_self_attention_6/layer_normalization_34/Shape", "StatefulPartitionedCall/transformer_2/decoder_2/decoder_layer_6/causal_self_attention_6/layer_normalization_34/strided_slice_2/stack", "StatefulPartitionedCall/transformer_2/decoder_2/decoder_layer_6/causal_self_attention_6/layer_normalization_34/strided_slice_2/stack_1", "StatefulPartitionedCall/transformer_2/decoder_2/decoder_layer_6/causal_self_attention_6/layer_normalization_34/strided_slice_2/stack_2"], "attr": {"shrink_axis_mask": {"i": "1"}, "Index": {"type": "DT_INT32"}, "new_axis_mask": {"i": "0"}, "begin_mask": {"i": "0"}, "T": {"type": "DT_INT32"}, "end_mask": {"i": "0"}, "ellipsis_mask": {"i": "0"}}}, {"name": "StatefulPartitionedCall/transformer_2/decoder_2/decoder_layer_6/causal_self_attention_6/layer_normalization_34/strided_slice", "op": "StridedSlice", "input": ["StatefulPartitionedCall/transformer_2/decoder_2/decoder_layer_6/causal_self_attention_6/layer_normalization_34/Shape", "StatefulPartitionedCall/transformer_2/decoder_2/decoder_layer_6/causal_self_attention_6/layer_normalization_34/strided_slice/stack", "StatefulPartitionedCall/transformer_2/decoder_2/decoder_layer_6/causal_self_attention_6/layer_normalization_34/strided_slice/stack_1", "StatefulPartitionedCall/transformer_2/decoder_2/decoder_layer_6/causal_self_attention_6/layer_normalization_34/strided_slice/stack_2"], "attr": {"shrink_axis_mask": {"i": "1"}, "new_axis_mask": {"i": "0"}, "Index": {"type": "DT_INT32"}, "begin_mask": {"i": "0"}, "T": {"type": "DT_INT32"}, "end_mask": {"i": "0"}, "ellipsis_mask": {"i": "0"}}}, {"name": "StatefulPartitionedCall/transformer_2/decoder_2/decoder_layer_6/causal_self_attention_6/layer_normalization_34/strided_slice_1", "op": "StridedSlice", "input": ["StatefulPartitionedCall/transformer_2/decoder_2/decoder_layer_6/causal_self_attention_6/layer_normalization_34/Shape", "StatefulPartitionedCall/transformer_2/decoder_2/decoder_layer_6/causal_self_attention_6/layer_normalization_34/strided_slice_1/stack", "StatefulPartitionedCall/transformer_2/decoder_2/decoder_layer_6/causal_self_attention_6/layer_normalization_34/strided_slice_1/stack_1", "StatefulPartitionedCall/transformer_2/decoder_2/decoder_layer_6/causal_self_attention_6/layer_normalization_34/strided_slice_1/stack_2"], "attr": {"shrink_axis_mask": {"i": "1"}, "Index": {"type": "DT_INT32"}, "new_axis_mask": {"i": "0"}, "begin_mask": {"i": "0"}, "T": {"type": "DT_INT32"}, "end_mask": {"i": "0"}, "ellipsis_mask": {"i": "0"}}}, {"name": "StatefulPartitionedCall/transformer_2/encoder_2/encoder_layer_6/global_self_attention_6/layer_normalization_30/mul_3", "op": "Mul", "input": ["StatefulPartitionedCall/transformer_2/encoder_2/encoder_layer_6/global_self_attention_6/layer_normalization_30/Reshape_1", "StatefulPartitionedCall/transformer_2/encoder_2/encoder_layer_6/global_self_attention_6/layer_normalization_30/mul_3/ReadVariableOp"], "attr": {"T": {"type": "DT_FLOAT"}}}, {"name": "StatefulPartitionedCall/transformer_2/decoder_2/decoder_layer_6/causal_self_attention_6/layer_normalization_34/mul_1", "op": "Mul", "input": ["StatefulPartitionedCall/transformer_2/decoder_2/decoder_layer_6/causal_self_attention_6/layer_normalization_34/strided_slice", "StatefulPartitionedCall/transformer_2/decoder_2/decoder_layer_6/causal_self_attention_6/layer_normalization_34/strided_slice_1"], "attr": {"T": {"type": "DT_INT32"}}}, {"name": "StatefulPartitionedCall/transformer_2/encoder_2/encoder_layer_6/global_self_attention_6/layer_normalization_30/add", "op": "AddV2", "input": ["StatefulPartitionedCall/transformer_2/encoder_2/encoder_layer_6/global_self_attention_6/layer_normalization_30/mul_3", "StatefulPartitionedCall/transformer_2/encoder_2/encoder_layer_6/global_self_attention_6/layer_normalization_30/add/ReadVariableOp"], "attr": {"T": {"type": "DT_FLOAT"}}}, {"name": "StatefulPartitionedCall/transformer_2/decoder_2/decoder_layer_6/causal_self_attention_6/layer_normalization_34/Reshape/shape", "op": "Pack", "input": ["StatefulPartitionedCall/transformer_2/decoder_2/decoder_layer_6/causal_self_attention_6/layer_normalization_34/Reshape/shape/0", "StatefulPartitionedCall/transformer_2/decoder_2/decoder_layer_6/causal_self_attention_6/layer_normalization_34/mul_1", "StatefulPartitionedCall/transformer_2/decoder_2/decoder_layer_6/causal_self_attention_6/layer_normalization_34/strided_slice_2", "StatefulPartitionedCall/transformer_2/decoder_2/decoder_layer_6/causal_self_attention_6/layer_normalization_34/Reshape/shape/3"], "attr": {"N": {"i": "4"}, "axis": {"i": "0"}, "T": {"type": "DT_INT32"}}}, {"name": "ConstantFolding/StatefulPartitionedCall/transformer_2/decoder_2/decoder_layer_6/causal_self_attention_6/layer_normalization_34/ones/packed_const_axis", "op": "Const", "input": ["^StatefulPartitionedCall/transformer_2/decoder_2/decoder_layer_6/causal_self_attention_6/layer_normalization_34/mul_1"], "attr": {"value": {"tensor": {"dtype": "DT_INT32", "tensorShape": {}}}, "dtype": {"type": "DT_INT32"}}}, {"name": "ConstantFolding/StatefulPartitionedCall/transformer_2/decoder_2/decoder_layer_6/causal_self_attention_6/layer_normalization_34/zeros/packed_const_axis", "op": "Const", "input": ["^StatefulPartitionedCall/transformer_2/decoder_2/decoder_layer_6/causal_self_attention_6/layer_normalization_34/mul_1"], "attr": {"value": {"tensor": {"dtype": "DT_INT32", "tensorShape": {}}}, "dtype": {"type": "DT_INT32"}}}, {"name": "StatefulPartitionedCall/transformer_2/encoder_2/encoder_layer_6/feed_forward_12/sequential_12/dense_26/Tensordot/Shape", "op": "Shape", "input": ["StatefulPartitionedCall/transformer_2/encoder_2/encoder_layer_6/global_self_attention_6/layer_normalization_30/add"], "attr": {"T": {"type": "DT_FLOAT"}, "out_type": {"type": "DT_INT32"}}, "experimentalType": {"typeId": "TFT_PRODUCT", "args": [{"typeId": "TFT_SHAPE_TENSOR", "args": [{"typeId": "TFT_INT32"}]}]}}, {"name": "StatefulPartitionedCall/transformer_2/decoder_2/decoder_layer_6/causal_self_attention_6/layer_normalization_34/Reshape", "op": "Reshape", "input": ["StatefulPartitionedCall/transformer_2/decoder_2/decoder_layer_6/causal_self_attention_6/add_34/add", "StatefulPartitionedCall/transformer_2/decoder_2/decoder_layer_6/causal_self_attention_6/layer_normalization_34/Reshape/shape"], "attr": {"T": {"type": "DT_FLOAT"}, "Tshape": {"type": "DT_INT32"}}}, {"name": "StatefulPartitionedCall/transformer_2/decoder_2/decoder_layer_6/causal_self_attention_6/layer_normalization_34/ones/packed", "op": "ExpandDims", "input": ["StatefulPartitionedCall/transformer_2/decoder_2/decoder_layer_6/causal_self_attention_6/layer_normalization_34/mul_1", "ConstantFolding/StatefulPartitionedCall/transformer_2/decoder_2/decoder_layer_6/causal_self_attention_6/layer_normalization_34/ones/packed_const_axis"], "attr": {"Tdim": {"type": "DT_INT32"}, "T": {"type": "DT_INT32"}}}, {"name": "StatefulPartitionedCall/transformer_2/decoder_2/decoder_layer_6/causal_self_attention_6/layer_normalization_34/zeros/packed", "op": "ExpandDims", "input": ["StatefulPartitionedCall/transformer_2/decoder_2/decoder_layer_6/causal_self_attention_6/layer_normalization_34/mul_1", "ConstantFolding/StatefulPartitionedCall/transformer_2/decoder_2/decoder_layer_6/causal_self_attention_6/layer_normalization_34/zeros/packed_const_axis"], "attr": {"Tdim": {"type": "DT_INT32"}, "T": {"type": "DT_INT32"}}}, {"name": "StatefulPartitionedCall/transformer_2/encoder_2/encoder_layer_6/feed_forward_12/sequential_12/dense_26/Tensordot/GatherV2_1", "op": "GatherV2", "input": ["StatefulPartitionedCall/transformer_2/encoder_2/encoder_layer_6/feed_forward_12/sequential_12/dense_26/Tensordot/Shape", "StatefulPartitionedCall/transformer_2/encoder_2/encoder_layer_6/feed_forward_12/sequential_12/dense_26/Tensordot/axes", "StatefulPartitionedCall/transformer_2/encoder_2/encoder_layer_6/feed_forward_12/sequential_12/dense_26/Tensordot/GatherV2_1/axis"], "attr": {"Taxis": {"type": "DT_INT32"}, "Tparams": {"type": "DT_INT32"}, "Tindices": {"type": "DT_INT32"}, "batch_dims": {"i": "0"}}}, {"name": "StatefulPartitionedCall/transformer_2/encoder_2/encoder_layer_6/feed_forward_12/sequential_12/dense_26/Tensordot/GatherV2", "op": "GatherV2", "input": ["StatefulPartitionedCall/transformer_2/encoder_2/encoder_layer_6/feed_forward_12/sequential_12/dense_26/Tensordot/Shape", "StatefulPartitionedCall/transformer_2/encoder_2/encoder_layer_6/feed_forward_12/sequential_12/dense_26/Tensordot/free", "StatefulPartitionedCall/transformer_2/encoder_2/encoder_layer_6/feed_forward_12/sequential_12/dense_26/Tensordot/GatherV2/axis"], "attr": {"Taxis": {"type": "DT_INT32"}, "Tparams": {"type": "DT_INT32"}, "Tindices": {"type": "DT_INT32"}, "batch_dims": {"i": "0"}}}, {"name": "StatefulPartitionedCall/transformer_2/decoder_2/decoder_layer_6/causal_self_attention_6/layer_normalization_34/ones", "op": "Fill", "input": ["StatefulPartitionedCall/transformer_2/decoder_2/decoder_layer_6/causal_self_attention_6/layer_normalization_34/ones/packed", "StatefulPartitionedCall/transformer_2/decoder_2/decoder_layer_6/causal_self_attention_6/layer_normalization_34/ones/Const"], "attr": {"T": {"type": "DT_FLOAT"}, "index_type": {"type": "DT_INT32"}}}, {"name": "StatefulPartitionedCall/transformer_2/decoder_2/decoder_layer_6/causal_self_attention_6/layer_normalization_34/zeros", "op": "Fill", "input": ["StatefulPartitionedCall/transformer_2/decoder_2/decoder_layer_6/causal_self_attention_6/layer_normalization_34/zeros/packed", "StatefulPartitionedCall/transformer_2/decoder_2/decoder_layer_6/causal_self_attention_6/layer_normalization_34/zeros/Const"], "attr": {"T": {"type": "DT_FLOAT"}, "index_type": {"type": "DT_INT32"}}}, {"name": "StatefulPartitionedCall/transformer_2/encoder_2/encoder_layer_6/feed_forward_12/sequential_12/dense_26/Tensordot/Prod_1", "op": "Prod", "input": ["StatefulPartitionedCall/transformer_2/encoder_2/encoder_layer_6/feed_forward_12/sequential_12/dense_26/Tensordot/GatherV2_1", "StatefulPartitionedCall/transformer_2/encoder_2/encoder_layer_6/feed_forward_12/sequential_12/dense_26/Tensordot/Const_1"], "attr": {"Tidx": {"type": "DT_INT32"}, "T": {"type": "DT_INT32"}, "keep_dims": {"b": false}}}, {"name": "StatefulPartitionedCall/transformer_2/encoder_2/encoder_layer_6/feed_forward_12/sequential_12/dense_26/Tensordot/Prod", "op": "Prod", "input": ["StatefulPartitionedCall/transformer_2/encoder_2/encoder_layer_6/feed_forward_12/sequential_12/dense_26/Tensordot/GatherV2", "StatefulPartitionedCall/transformer_2/encoder_2/encoder_layer_6/feed_forward_12/sequential_12/dense_26/Tensordot/Const"], "attr": {"T": {"type": "DT_INT32"}, "Tidx": {"type": "DT_INT32"}, "keep_dims": {"b": false}}}, {"name": "StatefulPartitionedCall/transformer_2/encoder_2/encoder_layer_6/feed_forward_12/sequential_12/dense_26/Tensordot/concat_1", "op": "ConcatV2", "input": ["StatefulPartitionedCall/transformer_2/encoder_2/encoder_layer_6/feed_forward_12/sequential_12/dense_26/Tensordot/GatherV2", "StatefulPartitionedCall/transformer_2/encoder_2/encoder_layer_6/feed_forward_12/sequential_12/dense_26/Tensordot/Const_2", "StatefulPartitionedCall/transformer_2/encoder_2/encoder_layer_6/feed_forward_12/sequential_12/dense_26/Tensordot/concat_1/axis"], "attr": {"N": {"i": "2"}, "Tidx": {"type": "DT_INT32"}, "T": {"type": "DT_INT32"}}}, {"name": "StatefulPartitionedCall/transformer_2/decoder_2/decoder_layer_6/causal_self_attention_6/layer_normalization_34/FusedBatchNormV3", "op": "FusedBatchNormV3", "input": ["StatefulPartitionedCall/transformer_2/decoder_2/decoder_layer_6/causal_self_attention_6/layer_normalization_34/Reshape", "StatefulPartitionedCall/transformer_2/decoder_2/decoder_layer_6/causal_self_attention_6/layer_normalization_34/ones", "StatefulPartitionedCall/transformer_2/decoder_2/decoder_layer_6/causal_self_attention_6/layer_normalization_34/zeros", "StatefulPartitionedCall/transformer_2/decoder_2/decoder_layer_6/causal_self_attention_6/layer_normalization_34/Const", "StatefulPartitionedCall/transformer_2/decoder_2/decoder_layer_6/causal_self_attention_6/layer_normalization_34/Const_1"], "attr": {"epsilon": {"f": 0.001}, "data_format": {"s": "TkNIVw=="}, "U": {"type": "DT_FLOAT"}, "T": {"type": "DT_FLOAT"}, "exponential_avg_factor": {"f": 1.0}, "is_training": {"b": true}}}, {"name": "StatefulPartitionedCall/transformer_2/encoder_2/encoder_layer_6/feed_forward_12/sequential_12/dense_26/Tensordot/stack", "op": "Pack", "input": ["StatefulPartitionedCall/transformer_2/encoder_2/encoder_layer_6/feed_forward_12/sequential_12/dense_26/Tensordot/Prod", "StatefulPartitionedCall/transformer_2/encoder_2/encoder_layer_6/feed_forward_12/sequential_12/dense_26/Tensordot/Prod_1"], "attr": {"N": {"i": "2"}, "axis": {"i": "0"}, "T": {"type": "DT_INT32"}}}, {"name": "StatefulPartitionedCall/transformer_2/decoder_2/decoder_layer_6/causal_self_attention_6/layer_normalization_34/Reshape_1", "op": "Reshape", "input": ["StatefulPartitionedCall/transformer_2/decoder_2/decoder_layer_6/causal_self_attention_6/layer_normalization_34/FusedBatchNormV3", "StatefulPartitionedCall/transformer_2/decoder_2/decoder_layer_6/causal_self_attention_6/layer_normalization_34/Shape"], "attr": {"T": {"type": "DT_FLOAT"}, "Tshape": {"type": "DT_INT32"}}}, {"name": "StatefulPartitionedCall/transformer_2/encoder_2/encoder_layer_6/feed_forward_12/sequential_12/dense_26/Tensordot/Reshape", "op": "Reshape", "input": ["StatefulPartitionedCall/transformer_2/encoder_2/encoder_layer_6/global_self_attention_6/layer_normalization_30/add", "StatefulPartitionedCall/transformer_2/encoder_2/encoder_layer_6/feed_forward_12/sequential_12/dense_26/Tensordot/stack"], "attr": {"T": {"type": "DT_FLOAT"}, "Tshape": {"type": "DT_INT32"}}}, {"name": "StatefulPartitionedCall/transformer_2/decoder_2/decoder_layer_6/causal_self_attention_6/layer_normalization_34/mul_3", "op": "Mu…
r_2/decoder_layer_6/feed_forward_14/layer_normalization_36/strided_slice_1/stack_1", "shape": [1], "dtype": "int32"}, {"name": "StatefulPartitionedCall/transformer_2/decoder_2/decoder_layer_6/feed_forward_14/layer_normalization_36/strided_slice_1/stack_2", "shape": [1], "dtype": "int32"}, {"name": "StatefulPartitionedCall/transformer_2/decoder_2/decoder_layer_6/feed_forward_14/layer_normalization_36/zeros/Const", "shape": [], "dtype": "float32"}, {"name": "StatefulPartitionedCall/transformer_2/decoder_2/decoder_layer_6/feed_forward_14/layer_normalization_36/Const", "shape": [0], "dtype": "float32"}, {"name": "StatefulPartitionedCall/transformer_2/decoder_2/decoder_layer_6/feed_forward_14/layer_normalization_36/Const_1", "shape": [0], "dtype": "float32"}, {"name": "StatefulPartitionedCall/transformer_2/decoder_2/decoder_layer_6/feed_forward_14/sequential_14/dense_31/Tensordot/Const", "shape": [1], "dtype": "int32"}, {"name": "StatefulPartitionedCall/transformer_2/decoder_2/decoder_layer_6/feed_forward_14/sequential_14/dense_31/Tensordot/axes", "shape": [1], "dtype": "int32"}, {"name": "StatefulPartitionedCall/transformer_2/decoder_2/decoder_layer_6/feed_forward_14/sequential_14/dense_31/Tensordot/GatherV2_1/axis", "shape": [], "dtype": "int32"}, {"name": "StatefulPartitionedCall/transformer_2/decoder_2/decoder_layer_6/feed_forward_14/sequential_14/dense_31/Tensordot/Const_1", "shape": [1], "dtype": "int32"}, {"name": "StatefulPartitionedCall/transformer_2/decoder_2/decoder_layer_6/feed_forward_14/sequential_14/dense_31/Tensordot/ReadVariableOp", "shape": [2048, 128], "dtype": "float32"}, {"name": "StatefulPartitionedCall/transformer_2/decoder_2/decoder_layer_6/feed_forward_14/sequential_14/dense_30/Tensordot/Const", "shape": [1], "dtype": "int32"}, {"name": "StatefulPartitionedCall/transformer_2/decoder_2/decoder_layer_6/feed_forward_14/sequential_14/dense_30/Tensordot/axes", "shape": [1], "dtype": "int32"}, {"name": "StatefulPartitionedCall/transformer_2/decoder_2/decoder_layer_6/feed_forward_14/sequential_14/dense_30/Tensordot/GatherV2_1/axis", "shape": [], "dtype": "int32"}, {"name": "StatefulPartitionedCall/transformer_2/decoder_2/decoder_layer_6/feed_forward_14/sequential_14/dense_30/Tensordot/Const_1", "shape": [1], "dtype": "int32"}, {"name": "StatefulPartitionedCall/transformer_2/decoder_2/decoder_layer_6/feed_forward_14/sequential_14/dense_30/Tensordot/ReadVariableOp", "shape": [128, 2048], "dtype": "float32"}, {"name": "StatefulPartitionedCall/transformer_2/decoder_2/decoder_layer_6/cross_attention_6/layer_normalization_35/Reshape/shape/0", "shape": [], "dtype": "int32"}, {"name": "StatefulPartitionedCall/transformer_2/decoder_2/decoder_layer_6/cross_attention_6/layer_normalization_35/strided_slice_2/stack", "shape": [1], "dtype": "int32"}, {"name": "StatefulPartitionedCall/transformer_2/decoder_2/decoder_layer_6/cross_attention_6/layer_normalization_35/strided_slice_2/stack_1", "shape": [1], "dtype": "int32"}, {"name": "StatefulPartitionedCall/transformer_2/decoder_2/decoder_layer_6/cross_attention_6/layer_normalization_35/strided_slice_2/stack_2", "shape": [1], "dtype": "int32"}, {"name": "StatefulPartitionedCall/transformer_2/decoder_2/decoder_layer_6/cross_attention_6/layer_normalization_35/Reshape/shape/3", "shape": [], "dtype": "int32"}, {"name": "StatefulPartitionedCall/transformer_2/decoder_2/decoder_layer_6/cross_attention_6/layer_normalization_35/ones/Const", "shape": [], "dtype": "float32"}, {"name": "StatefulPartitionedCall/transformer_2/decoder_2/decoder_layer_6/cross_attention_6/layer_normalization_35/strided_slice/stack", "shape": [1], "dtype": "int32"}, {"name": "StatefulPartitionedCall/transformer_2/decoder_2/decoder_layer_6/cross_attention_6/layer_normalization_35/strided_slice/stack_1", "shape": [1], "dtype": "int32"}, {"name": "StatefulPartitionedCall/transformer_2/decoder_2/decoder_layer_6/cross_attention_6/layer_normalization_35/strided_slice/stack_2", "shape": [1], "dtype": "int32"}, {"name": "StatefulPartitionedCall/transformer_2/decoder_2/decoder_layer_6/cross_attention_6/layer_normalization_35/strided_slice_1/stack", "shape": [1], "dtype": "int32"}, {"name": "StatefulPartitionedCall/transformer_2/decoder_2/decoder_layer_6/cross_attention_6/layer_normalization_35/strided_slice_1/stack_1", "shape": [1], "dtype": "int32"}, {"name": "StatefulPartitionedCall/transformer_2/decoder_2/decoder_layer_6/cross_attention_6/layer_normalization_35/strided_slice_1/stack_2", "shape": [1], "dtype": "int32"}, {"name": "StatefulPartitionedCall/transformer_2/decoder_2/decoder_layer_6/cross_attention_6/layer_normalization_35/zeros/Const", "shape": [], "dtype": "float32"}, {"name": "StatefulPartitionedCall/transformer_2/decoder_2/decoder_layer_6/cross_attention_6/layer_normalization_35/Const", "shape": [0], "dtype": "float32"}, {"name": "StatefulPartitionedCall/transformer_2/decoder_2/decoder_layer_6/cross_attention_6/layer_normalization_35/Const_1", "shape": [0], "dtype": "float32"}, {"name": "StatefulPartitionedCall/transformer_2/decoder_2/decoder_layer_6/cross_attention_6/multi_head_attention_21/key/einsum/Einsum/ReadVariableOp", "shape": [128, 8, 128], "dtype": "float32"}, {"name": "StatefulPartitionedCall/transformer_2/decoder_2/decoder_layer_6/cross_attention_6/multi_head_attention_21/key/add/ReadVariableOp", "shape": [8, 128], "dtype": "float32"}, {"name": "StatefulPartitionedCall/transformer_2/decoder_2/decoder_layer_6/causal_self_attention_6/layer_normalization_34/Reshape/shape/0", "shape": [], "dtype": "int32"}, {"name": "StatefulPartitionedCall/transformer_2/decoder_2/decoder_layer_6/causal_self_attention_6/layer_normalization_34/strided_slice_2/stack", "shape": [1], "dtype": "int32"}, {"name": "StatefulPartitionedCall/transformer_2/decoder_2/decoder_layer_6/causal_self_attention_6/layer_normalization_34/strided_slice_2/stack_1", "shape": [1], "dtype": "int32"}, {"name": "StatefulPartitionedCall/transformer_2/decoder_2/decoder_layer_6/causal_self_attention_6/layer_normalization_34/strided_slice_2/stack_2", "shape": [1], "dtype": "int32"}, {"name": "StatefulPartitionedCall/transformer_2/decoder_2/decoder_layer_6/causal_self_attention_6/layer_normalization_34/Reshape/shape/3", "shape": [], "dtype": "int32"}, {"name": "StatefulPartitionedCall/transformer_2/decoder_2/decoder_layer_6/causal_self_attention_6/layer_normalization_34/ones/Const", "shape": [], "dtype": "float32"}, {"name": "StatefulPartitionedCall/transformer_2/decoder_2/decoder_layer_6/causal_self_attention_6/layer_normalization_34/strided_slice/stack", "shape": [1], "dtype": "int32"}, {"name": "StatefulPartitionedCall/transformer_2/decoder_2/decoder_layer_6/causal_self_attention_6/layer_normalization_34/strided_slice/stack_1", "shape": [1], "dtype": "int32"}, {"name": "StatefulPartitionedCall/transformer_2/decoder_2/decoder_layer_6/causal_self_attention_6/layer_normalization_34/strided_slice/stack_2", "shape": [1], "dtype": "int32"}, {"name": "StatefulPartitionedCall/transformer_2/decoder_2/decoder_layer_6/causal_self_attention_6/layer_normalization_34/strided_slice_1/stack", "shape": [1], "dtype": "int32"}, {"name": "StatefulPartitionedCall/transformer_2/decoder_2/decoder_layer_6/causal_self_attention_6/layer_normalization_34/strided_slice_1/stack_1", "shape": [1], "dtype": "int32"}, {"name": "StatefulPartitionedCall/transformer_2/decoder_2/decoder_layer_6/causal_self_attention_6/layer_normalization_34/strided_slice_1/stack_2", "shape": [1], "dtype": "int32"}, {"name": "StatefulPartitionedCall/transformer_2/decoder_2/decoder_layer_6/causal_self_attention_6/layer_normalization_34/zeros/Const", "shape": [], "dtype": "float32"}, {"name": "StatefulPartitionedCall/transformer_2/decoder_2/decoder_layer_6/causal_self_attention_6/layer_normalization_34/Const", "shape": [0], "dtype": "float32"}, {"name": "StatefulPartitionedCall/transformer_2/decoder_2/decoder_layer_6/causal_self_attention_6/layer_normalization_34/Const_1", "shape": [0], "dtype": "float32"}, {"name": "StatefulPartitionedCall/transformer_2/decoder_2/decoder_layer_6/causal_self_attention_6/multi_head_attention_20/key/einsum/Einsum/ReadVariableOp", "shape": [128, 8, 128], "dtype": "float32"}, {"name": "StatefulPartitionedCall/transformer_2/decoder_2/decoder_layer_6/causal_self_attention_6/multi_head_attention_20/key/add/ReadVariableOp", "shape": [8, 128], "dtype": "float32"}, {"name": "StatefulPartitionedCall/transformer_2/decoder_2/decoder_layer_6/causal_self_attention_6/multi_head_attention_20/query/einsum/Einsum/ReadVariableOp", "shape": [128, 8, 128], "dtype": "float32"}, {"name": "StatefulPartitionedCall/transformer_2/decoder_2/decoder_layer_6/causal_self_attention_6/multi_head_attention_20/query/add/ReadVariableOp", "shape": [8, 128], "dtype": "float32"}, {"name": "StatefulPartitionedCall/transformer_2/decoder_2/decoder_layer_6/causal_self_attention_6/multi_head_attention_20/Mul/y", "shape": [], "dtype": "float32"}, {"name": "StatefulPartitionedCall/transformer_2/decoder_2/decoder_layer_6/causal_self_attention_6/multi_head_attention_20/softmax_2/sub/x", "shape": [], "dtype": "float32"}, {"name": "StatefulPartitionedCall/transformer_2/decoder_2/decoder_layer_6/causal_self_attention_6/multi_head_attention_20/ones/packed/0", "shape": [], "dtype": "int32"}, {"name": "StatefulPartitionedCall/transformer_2/decoder_2/decoder_layer_6/causal_self_attention_6/multi_head_attention_20/strided_slice/stack", "shape": [1], "dtype": "int32"}, {"name": "StatefulPartitionedCall/transformer_2/decoder_2/decoder_layer_6/causal_self_attention_6/multi_head_attention_20/strided_slice/stack_1", "shape": [1], "dtype": "int32"}, {"name": "StatefulPartitionedCall/transformer_2/decoder_2/decoder_layer_6/causal_self_attention_6/multi_head_attention_20/strided_slice/stack_2", "shape": [1], "dtype": "int32"}, {"name": "StatefulPartitionedCall/transformer_2/decoder_2/decoder_layer_6/causal_self_attention_6/multi_head_attention_20/strided_slice_1/stack", "shape": [1], "dtype": "int32"}, {"name": "StatefulPartitionedCall/transformer_2/decoder_2/decoder_layer_6/causal_self_attention_6/multi_head_attention_20/strided_slice_1/stack_1", "shape": [1], "dtype": "int32"}, {"name": "StatefulPartitionedCall/transformer_2/decoder_2/decoder_layer_6/causal_self_attention_6/multi_head_attention_20/strided_slice_1/stack_2", "shape": [1], "dtype": "int32"}, {"name": "StatefulPartitionedCall/transformer_2/decoder_2/decoder_layer_6/causal_self_attention_6/multi_head_attention_20/ones/Const", "shape": [], "dtype": "bool"}, {"name": "StatefulPartitionedCall/transformer_2/decoder_2/decoder_layer_6/causal_self_attention_6/multi_head_attention_20/MatrixBandPart/num_lower", "shape": [], "dtype": "int32"}, {"name": "StatefulPartitionedCall/transformer_2/decoder_2/decoder_layer_6/causal_self_attention_6/multi_head_attention_20/MatrixBandPart/num_upper", "shape": [], "dtype": "int32"}, {"name": "StatefulPartitionedCall/transformer_2/decoder_2/decoder_layer_6/causal_self_attention_6/multi_head_attention_20/ExpandDims/dim", "shape": [], "dtype": "int32"}, {"name": "StatefulPartitionedCall/transformer_2/decoder_2/decoder_layer_6/causal_self_attention_6/multi_head_attention_20/softmax_2/mul/y", "shape": [], "dtype": "float32"}, {"name": "unknown_33", "shape": [1000, 128], "dtype": "float32"}, {"name": "StatefulPartitionedCall/transformer_2/decoder_2/positional_embedding_5/embedding_5/embedding_lookup/axis", "shape": [], "dtype": "int32"}, {"name": "StatefulPartitionedCall/transformer_2/decoder_2/positional_embedding_5/Sqrt", "shape": [], "dtype": "float32"}, {"name": "unknown_34", "shape": [2048, 128], "dtype": "float32"}, {"name": "StatefulPartitionedCall/transformer_2/decoder_2/positional_embedding_5/strided_slice_1/stack", "shape": [3], "dtype": "int32"}, {"name": "StatefulPartitionedCall/transformer_2/decoder_2/positional_embedding_5/strided_slice_1/stack_1/0", "shape": [], "dtype": "int32"}, {"name": "StatefulPartitionedCall/transformer_2/decoder_2/positional_embedding_5/strided_slice/stack", "shape": [1], "dtype": "int32"}, {"name": "StatefulPartitionedCall/transformer_2/decoder_2/positional_embedding_5/strided_slice/stack_1", "shape": [1], "dtype": "int32"}, {"name": "StatefulPartitionedCall/transformer_2/decoder_2/positional_embedding_5/strided_slice/stack_2", "shape": [1], "dtype": "int32"}, {"name": "StatefulPartitionedCall/transformer_2/decoder_2/positional_embedding_5/strided_slice_1/stack_1/2", "shape": [], "dtype": "int32"}, {"name": "StatefulPartitionedCall/transformer_2/decoder_2/positional_embedding_5/strided_slice_1/stack_2", "shape": [3], "dtype": "int32"}, {"name": "StatefulPartitionedCall/transformer_2/decoder_2/decoder_layer_6/causal_self_attention_6/multi_head_attention_20/value/einsum/Einsum/ReadVariableOp", "shape": [128, 8, 128], "dtype": "float32"}, {"name": "StatefulPartitionedCall/transformer_2/decoder_2/decoder_layer_6/causal_self_attention_6/multi_head_attention_20/value/add/ReadVariableOp", "shape": [8, 128], "dtype": "float32"}, {"name": "StatefulPartitionedCall/transformer_2/decoder_2/decoder_layer_6/causal_self_attention_6/multi_head_attention_20/attention_output/einsum/Einsum/ReadVariableOp", "shape": [8, 128, 128], "dtype": "float32"}, {"name": "StatefulPartitionedCall/transformer_2/decoder_2/decoder_layer_6/causal_self_attention_6/multi_head_attention_20/attention_output/add/ReadVariableOp", "shape": [128], "dtype": "float32"}, {"name": "StatefulPartitionedCall/transformer_2/decoder_2/decoder_layer_6/causal_self_attention_6/layer_normalization_34/mul_3/ReadVariableOp", "shape": [128], "dtype": "float32"}, {"name": "StatefulPartitionedCall/transformer_2/decoder_2/decoder_layer_6/causal_self_attention_6/layer_normalization_34/add/ReadVariableOp", "shape": [128], "dtype": "float32"}, {"name": "StatefulPartitionedCall/transformer_2/decoder_2/decoder_layer_6/cross_attention_6/multi_head_attention_21/query/einsum/Einsum/ReadVariableOp", "shape": [128, 8, 128], "dtype": "float32"}, {"name": "StatefulPartitionedCall/transformer_2/decoder_2/decoder_layer_6/cross_attention_6/multi_head_attention_21/query/add/ReadVariableOp", "shape": [8, 128], "dtype": "float32"}, {"name": "StatefulPartitionedCall/transformer_2/decoder_2/decoder_layer_6/cross_attention_6/multi_head_attention_21/Mul/y", "shape": [], "dtype": "float32"}, {"name": "StatefulPartitionedCall/transformer_2/decoder_2/decoder_layer_6/cross_attention_6/multi_head_attention_21/value/einsum/Einsum/ReadVariableOp", "shape": [128, 8, 128], "dtype": "float32"}, {"name": "StatefulPartitionedCall/transformer_2/decoder_2/decoder_layer_6/cross_attention_6/multi_head_attention_21/value/add/ReadVariableOp", "shape": [8, 128], "dtype": "float32"}, {"name": "StatefulPartitionedCall/transformer_2/decoder_2/decoder_layer_6/cross_attention_6/multi_head_attention_21/attention_output/einsum/Einsum/ReadVariableOp", "shape": [8, 128, 128], "dtype": "float32"}, {"name": "StatefulPartitionedCall/transformer_2/decoder_2/decoder_layer_6/cross_attention_6/multi_head_attention_21/attention_output/add/ReadVariableOp", "shape": [128], "dtype": "float32"}, {"name": "StatefulPartitionedCall/transformer_2/decoder_2/decoder_layer_6/cross_attention_6/layer_normalization_35/mul_3/ReadVariableOp", "shape": [128], "dtype": "float32"}, {"name": "StatefulPartitionedCall/transformer_2/decoder_2/decoder_layer_6/cross_attention_6/layer_normalization_35/add/ReadVariableOp", "shape": [128], "dtype": "float32"}, {"name": "StatefulPartitionedCall/transformer_2/decoder_2/decoder_layer_6/feed_forward_14/sequential_14/dense_30/Tensordot/free", "shape": [2], "dtype": "int32"}, {"name": "StatefulPartitionedCall/transformer_2/decoder_2/decoder_layer_6/feed_forward_14/sequential_14/dense_30/Tensordot/GatherV2/axis", "shape": [], "dtype": "int32"}, {"name": "StatefulPartitionedCall/transformer_2/decoder_2/decoder_layer_6/feed_forward_14/sequential_14/dense_30/Tensordot/Const_2", "shape": [1], "dtype": "int32"}, {"name": "StatefulPartitionedCall/transformer_2/decoder_2/decoder_layer_6/feed_forward_14/sequential_14/dense_30/Tensordot/concat_1/axis", "shape": [], "dtype": "int32"}, {"name": "StatefulPartitionedCall/transformer_2/decoder_2/decoder_layer_6/feed_forward_14/sequential_14/dense_30/BiasAdd/ReadVariableOp", "shape": [2048], "dtype": "float32"}, {"name": "StatefulPartitionedCall/transformer_2/decoder_2/decoder_layer_6/feed_forward_14/sequential_14/dense_31/Tensordot/free", "shape": [2], "dtype": "int32"}, {"name": "StatefulPartitionedCall/transformer_2/decoder_2/decoder_layer_6/feed_forward_14/sequential_14/dense_31/Tensordot/GatherV2/axis", "shape": [], "dtype": "int32"}, {"name": "StatefulPartitionedCall/transformer_2/decoder_2/decoder_layer_6/feed_forward_14/sequential_14/dense_31/Tensordot/Const_2", "shape": [1], "dtype": "int32"}, {"name": "StatefulPartitionedCall/transformer_2/decoder_2/decoder_layer_6/feed_forward_14/sequential_14/dense_31/Tensordot/concat_1/axis", "shape": [], "dtype": "int32"}, {"name": "StatefulPartitionedCall/transformer_2/decoder_2/decoder_layer_6/feed_forward_14/sequential_14/dense_31/BiasAdd/ReadVariableOp", "shape": [128], "dtype": "float32"}, {"name": "StatefulPartitionedCall/transformer_2/decoder_2/decoder_layer_6/feed_forward_14/layer_normalization_36/mul_3/ReadVariableOp", "shape": [128], "dtype": "float32"}, {"name": "StatefulPartitionedCall/transformer_2/decoder_2/decoder_layer_6/feed_forward_14/layer_normalization_36/add/ReadVariableOp", "shape": [128], "dtype": "float32"}, {"name": "StatefulPartitionedCall/transformer_2/decoder_2/decoder_layer_7/causal_self_attention_7/multi_head_attention_22/value/einsum/Einsum/ReadVariableOp", "shape": [128, 8, 128], "dtype": "float32"}, {"name": "StatefulPartitionedCall/transformer_2/decoder_2/decoder_layer_7/causal_self_attention_7/multi_head_attention_22/value/add/ReadVariableOp", "shape": [8, 128], "dtype": "float32"}, {"name": "StatefulPartitionedCall/transformer_2/decoder_2/decoder_layer_7/causal_self_attention_7/multi_head_attention_22/attention_output/einsum/Einsum/ReadVariableOp", "shape": [8, 128, 128], "dtype": "float32"}, {"name": "StatefulPartitionedCall/transformer_2/decoder_2/decoder_layer_7/causal_self_attention_7/multi_head_attention_22/attention_output/add/ReadVariableOp", "shape": [128], "dtype": "float32"}, {"name": "StatefulPartitionedCall/transformer_2/decoder_2/decoder_layer_7/causal_self_attention_7/layer_normalization_37/mul_3/ReadVariableOp", "shape": [128], "dtype": "float32"}, {"name": "StatefulPartitionedCall/transformer_2/decoder_2/decoder_layer_7/causal_self_attention_7/layer_normalization_37/add/ReadVariableOp", "shape": [128], "dtype": "float32"}, {"name": "StatefulPartitionedCall/transformer_2/decoder_2/decoder_layer_7/cross_attention_7/multi_head_attention_23/query/einsum/Einsum/ReadVariableOp", "shape": [128, 8, 128], "dtype": "float32"}, {"name": "StatefulPartitionedCall/transformer_2/decoder_2/decoder_layer_7/cross_attention_7/multi_head_attention_23/query/add/ReadVariableOp", "shape": [8, 128], "dtype": "float32"}, {"name": "StatefulPartitionedCall/transformer_2/decoder_2/decoder_layer_7/cross_attention_7/multi_head_attention_23/Mul/y", "shape": [], "dtype": "float32"}, {"name": "StatefulPartitionedCall/transformer_2/encoder_2/encoder_layer_7/feed_forward_13/layer_normalization_33/Reshape/shape/0", "shape": [], "dtype": "int32"}, {"name": "StatefulPartitionedCall/transformer_2/encoder_2/encoder_layer_7/feed_forward_13/layer_normalization_33/strided_slice_2/stack", "shape": [1], "dtype": "int32"}, {"name": "StatefulPartitionedCall/transformer_2/encoder_2/encoder_layer_7/feed_forward_13/layer_normalization_33/strided_slice_2/stack_1", "shape": [1], "dtype": "int32"}, {"name": "StatefulPartitionedCall/transformer_2/encoder_2/encoder_layer_7/feed_forward_13/layer_normalization_33/strided_slice_2/stack_2", "shape": [1], "dtype": "int32"}, {"name": "StatefulPartitionedCall/transformer_2/encoder_2/encoder_layer_7/feed_forward_13/layer_normalization_33/Reshape/shape/3", "shape": [], "dtype": "int32"}, {"name": "StatefulPartitionedCall/transformer_2/encoder_2/encoder_layer_7/feed_forward_13/layer_normalization_33/ones/Const", "shape": [], "dtype": "float32"}, {"name": "StatefulPartitionedCall/transformer_2/encoder_2/encoder_layer_7/feed_forward_13/layer_normalization_33/strided_slice/stack", "shape": [1], "dtype": "int32"}, {"name": "StatefulPartitionedCall/transformer_2/encoder_2/encoder_layer_7/feed_forward_13/layer_normalization_33/strided_slice/stack_1", "shape": [1], "dtype": "int32"}, {"name": "StatefulPartitionedCall/transformer_2/encoder_2/encoder_layer_7/feed_forward_13/layer_normalization_33/strided_slice/stack_2", "shape": [1], "dtype": "int32"}, {"name": "StatefulPartitionedCall/transformer_2/encoder_2/encoder_layer_7/feed_forward_13/layer_normalization_33/strided_slice_1/stack", "shape": [1], "dtype": "int32"}, {"name": "StatefulPartitionedCall/transformer_2/encoder_2/encoder_layer_7/feed_forward_13/layer_normalization_33/strided_slice_1/stack_1", "shape": [1], "dtype": "int32"}, {"name": "StatefulPartitionedCall/transformer_2/encoder_2/encoder_layer_7/feed_forward_13/layer_normalization_33/strided_slice_1/stack_2", "shape": [1], "dtype": "int32"}, {"name": "StatefulPartitionedCall/transformer_2/encoder_2/encoder_layer_7/feed_forward_13/layer_normalization_33/zeros/Const", "shape": [], "dtype": "float32"}, {"name": "StatefulPartitionedCall/transformer_2/encoder_2/encoder_layer_7/feed_forward_13/layer_normalization_33/Const", "shape": [0], "dtype": "float32"}, {"name": "StatefulPartitionedCall/transformer_2/encoder_2/encoder_layer_7/feed_forward_13/layer_normalization_33/Const_1", "shape": [0], "dtype": "float32"}, {"name": "StatefulPartitionedCall/transformer_2/encoder_2/encoder_layer_7/feed_forward_13/sequential_13/dense_29/Tensordot/Const", "shape": [1], "dtype": "int32"}, {"name": "StatefulPartitionedCall/transformer_2/encoder_2/encoder_layer_7/feed_forward_13/sequential_13/dense_29/Tensordot/axes", "shape": [1], "dtype": "int32"}, {"name": "StatefulPartitionedCall/transformer_2/encoder_2/encoder_layer_7/feed_forward_13/sequential_13/dense_29/Tensordot/GatherV2_1/axis", "shape": [], "dtype": "int32"}, {"name": "StatefulPartitionedCall/transformer_2/encoder_2/encoder_layer_7/feed_forward_13/sequential_13/dense_29/Tensordot/Const_1", "shape": [1], "dtype": "int32"}, {"name": "StatefulPartitionedCall/transformer_2/encoder_2/encoder_layer_7/feed_forward_13/sequential_13/dense_29/Tensordot/ReadVariableOp", "shape": [2048, 128], "dtype": "float32"}, {"name": "StatefulPartitionedCall/transformer_2/encoder_2/encoder_layer_7/feed_forward_13/sequential_13/dense_28/Tensordot/Const", "shape": [1], "dtype": "int32"}, {"name": "StatefulPartitionedCall/transformer_2/encoder_2/encoder_layer_7/feed_forward_13/sequential_13/dense_28/Tensordot/axes", "shape": [1], "dtype": "int32"}, {"name": "StatefulPartitionedCall/transformer_2/encoder_2/encoder_layer_7/feed_forward_13/sequential_13/dense_28/Tensordot/GatherV2_1/axis", "shape": [], "dtype": "int32"}, {"name": "StatefulPartitionedCall/transformer_2/encoder_2/encoder_layer_7/feed_forward_13/sequential_13/dense_28/Tensordot/Const_1", "shape": [1], "dtype": "int32"}, {"name": "StatefulPartitionedCall/transformer_2/encoder_2/encoder_layer_7/feed_forward_13/sequential_13/dense_28/Tensordot/ReadVariableOp", "shape": [128, 2048], "dtype": "float32"}, {"name": "StatefulPartitionedCall/transformer_2/encoder_2/encoder_layer_7/global_self_attention_7/layer_normalization_32/Reshape/shape/0", "shape": [], "dtype": "int32"}, {"name": "StatefulPartitionedCall/transformer_2/encoder_2/encoder_layer_7/global_self_attention_7/layer_normalization_32/strided_slice_2/stack", "shape": [1], "dtype": "int32"}, {"name": "StatefulPartitionedCall/transformer_2/encoder_2/encoder_layer_7/global_self_attention_7/layer_normalization_32/strided_slice_2/stack_1", "shape": [1], "dtype": "int32"}, {"name": "StatefulPartitionedCall/transformer_2/encoder_2/encoder_layer_7/global_self_attention_7/layer_normalization_32/strided_slice_2/stack_2", "shape": [1], "dtype": "int32"}, {"name": "StatefulPartitionedCall/transformer_2/encoder_2/encoder_layer_7/global_self_attention_7/layer_normalization_32/Reshape/shape/3", "shape": [], "dtype": "int32"}, {"name": "StatefulPartitionedCall/transformer_2/encoder_2/encoder_layer_7/global_self_attention_7/layer_normalization_32/ones/Const", "shape": [], "dtype": "float32"}, {"name": "StatefulPartitionedCall/transformer_2/encoder_2/encoder_layer_7/global_self_attention_7/layer_normalization_32/strided_slice/stack", "shape": [1], "dtype": "int32"}, {"name": "StatefulPartitionedCall/transformer_2/encoder_2/encoder_layer_7/global_self_attention_7/layer_normalization_32/strided_slice/stack_1", "shape": [1], "dtype": "int32"}, {"name": "StatefulPartitionedCall/transformer_2/encoder_2/encoder_layer_7/global_self_attention_7/layer_normalization_32/strided_slice/stack_2", "shape": [1], "dtype": "int32"}, {"name": "StatefulPartitionedCall/transformer_2/encoder_2/encoder_layer_7/global_self_attention_7/layer_normalization_32/strided_slice_1/stack", "shape": [1], "dtype": "int32"}, {"name": "StatefulPartitionedCall/transformer_2/encoder_2/encoder_layer_7/global_self_attention_7/layer_normalization_32/strided_slice_1/stack_1", "shape": [1], "dtype": "int32"}, {"name": "StatefulPartitionedCall/transformer_2/encoder_2/encoder_layer_7/global_self_attention_7/layer_normalization_32/strided_slice_1/stack_2", "shape": [1], "dtype": "int32"}, {"name": "StatefulPartitionedCall/transformer_2/encoder_2/encoder_layer_7/global_self_attention_7/layer_normalization_32/zeros/Const", "shape": [], "dtype": "float32"}, {"name": "StatefulPartitionedCall/transformer_2/encoder_2/encoder_layer_7/global_self_attention_7/layer_normalization_32/Const", "shape": [0], "dtype": "float32"}, {"name": "StatefulPartitionedCall/transformer_2/encoder_2/encoder_layer_7/global_self_attention_7/layer_normalization_32/Const_1", "shape": [0], "dtype": "float32"}, {"name": "StatefulPartitionedCall/transformer_2/encoder_2/encoder_layer_7/global_self_attention_7/multi_head_attention_19/key/einsum/Einsum/ReadVariableOp", "shape": [128, 8, 128], "dtype": "float32"}, {"name": "StatefulPartitionedCall/transformer_2/encoder_2/encoder_layer_7/global_self_attention_7/multi_head_attention_19/key/add/ReadVariableOp", "shape": [8, 128], "dtype": "float32"}, {"name": "StatefulPartitionedCall/transformer_2/encoder_2/encoder_layer_7/global_self_attention_7/multi_head_attention_19/query/einsum/Einsum/ReadVariableOp", "shape": [128, 8, 128], "dtype": "float32"}, {"name": "StatefulPartitionedCall/transformer_2/encoder_2/encoder_layer_7/global_self_attention_7/multi_head_attention_19/query/add/ReadVariableOp", "shape": [8, 128], "dtype": "float32"}, {"name": "StatefulPartitionedCall/transformer_2/encoder_2/encoder_layer_7/global_self_attention_7/multi_head_attention_19/Mul/y", "shape": [], "dtype": "float32"}, {"name": "StatefulPartitionedCall/transformer_2/encoder_2/encoder_layer_6/feed_forward_12/layer_normalization_31/Reshape/shape/0", "shape": [], "dtype": "int32"}, {"name": "StatefulPartitionedCall/transformer_2/encoder_2/encoder_layer_6/feed_forward_12/layer_normalization_31/strided_slice_2/stack", "shape": [1], "dtype": "int32"}, {"name": "StatefulPartitionedCall/transformer_2/encoder_2/encoder_layer_6/feed_forward_12/layer_normalization_31/strided_slice_2/stack_1", "shape": [1], "dtype": "int32"}, {"name": "StatefulPartitionedCall/transformer_2/encoder_2/encoder_layer_6/feed_forward_12/layer_normalization_31/strided_slice_2/stack_2", "shape": [1], "dtype": "int32"}, {"name": "StatefulPartitionedCall/transformer_2/encoder_2/encoder_layer_6/feed_forward_12/layer_normalization_31/Reshape/shape/3", "shape": [], "dtype": "int32"}, {"name": "StatefulPartitionedCall/transformer_2/encoder_2/encoder_layer_6/feed_forward_12/layer_normalization_31/ones/Const", "shape": [], "dtype": "float32"}, {"name": "StatefulPartitionedCall/transformer_2/encoder_2/encoder_layer_6/feed_forward_12/layer_normalization_31/strided_slice/stack", "shape": [1], "dtype": "int32"}, {"name": "StatefulPartitionedCall/transformer_2/encoder_2/encoder_layer_6/feed_forward_12/layer_normalization_31/strided_slice/stack_1", "shape": [1], "dtype": "int32"}, {"name": "StatefulPartitionedCall/transformer_2/encoder_2/encoder_layer_6/feed_forward_12/layer_normalization_31/strided_slice/stack_2", "shape": [1], "dtype": "int32"}, {"name": "StatefulPartitionedCall/transformer_2/encoder_2/encoder_layer_6/feed_forward_12/layer_normalization_31/strided_slice_1/stack", "shape": [1], "dtype": "int32"}, {"name": "StatefulPartitionedCall/transformer_2/encoder_2/encoder_layer_6/feed_forward_12/layer_normalization_31/strided_slice_1/stack_1", "shape": [1], "dtype": "int32"}, {"name": "StatefulPartitionedCall/transformer_2/encoder_2/encoder_layer_6/feed_forward_12/layer_normalization_31/strided_slice_1/stack_2", "shape": [1], "dtype": "int32"}, {"name": "StatefulPartitionedCall/transformer_2/encoder_2/encoder_layer_6/feed_forward_12/layer_normalization_31/zeros/Const", "shape": [], "dtype": "float32"}, {"name": "StatefulPartitionedCall/transformer_2/encoder_2/encoder_layer_6/feed_forward_12/layer_normalization_31/Const", "shape": [0], "dtype": "float32"}, {"name": "StatefulPartitionedCall/transformer_2/encoder_2/encoder_layer_6/feed_forward_12/layer_normalization_31/Const_1", "shape": [0], "dtype": "float32"}, {"name": "StatefulPartitionedCall/transformer_2/encoder_2/encoder_layer_6/feed_forward_12/sequential_12/dense_27/Tensordot/Const", "shape": [1], "dtype": "int32"}, {"name": "StatefulPartitionedCall/transformer_2/encoder_2/encoder_layer_6/feed_forward_12/sequential_12/dense_27/Tensordot/axes", "shape": [1], "dtype": "int32"}, {"name": "StatefulPartitionedCall/transformer_2/encoder_2/encoder_layer_6/feed_forward_12/sequential_12/dense_27/Tensordot/GatherV2_1/axis", "shape": [], "dtype": "int32"}, {"name": "StatefulPartitionedCall/transformer_2/encoder_2/encoder_layer_6/feed_forward_12/sequential_12/dense_27/Tensordot/Const_1", "shape": [1], "dtype": "int32"}, {"name": "StatefulPartitionedCall/transformer_2/encoder_2/encoder_layer_6/feed_forward_12/sequential_12/dense_27/Tensordot/ReadVariableOp", "shape": [2048, 128], "dtype": "float32"}, {"name": "StatefulPartitionedCall/transformer_2/encoder_2/encoder_layer_6/feed_forward_12/sequential_12/dense_26/Tensordot/Const", "shape": [1], "dtype": "int32"}, {"name": "StatefulPartitionedCall/transformer_2/encoder_2/encoder_layer_6/feed_forward_12/sequential_12/dense_26/Tensordot/axes", "shape": [1], "dtype": "int32"}, {"name": "StatefulPartitionedCall/transformer_2/encoder_2/encoder_layer_6/feed_forward_12/sequential_12/dense_26/Tensordot/GatherV2_1/axis", "shape": [], "dtype": "int32"}, {"name": "StatefulPartitionedCall/transformer_2/encoder_2/encoder_layer_6/feed_forward_12/sequential_12/dense_26/Tensordot/Const_1", "shape": [1], "dtype": "int32"}, {"name": "StatefulPartitionedCall/transformer_2/encoder_2/encoder_layer_6/feed_forward_12/sequential_12/dense_26/Tensordot/ReadVariableOp", "shape": [128, 2048], "dtype": "float32"}, {"name": "StatefulPartitionedCall/transformer_2/encoder_2/encoder_layer_6/global_self_attention_6/layer_normalization_30/Reshape/shape/0", "shape": [], "dtype": "int32"}, {"name": "StatefulPartitionedCall/transformer_2/encoder_2/encoder_layer_6/global_self_attention_6/layer_normalization_30/strided_slice_2/stack", "shape": [1], "dtype": "int32"}, {"name": "StatefulPartitionedCall/transformer_2/encoder_2/encoder_layer_6/global_self_attention_6/layer_normalization_30/strided_slice_2/stack_1", "shape": [1], "dtype": "int32"}, {"name": "StatefulPartitionedCall/transformer_2/encoder_2/encoder_layer_6/global_self_attention_6/layer_normalization_30/strided_slice_2/stack_2", "shape": [1], "dtype": "int32"}, {"name": "StatefulPartitionedCall/transformer_2/encoder_2/encoder_layer_6/global_self_attention_6/layer_normalization_30/Reshape/shape/3", "shape": [], "dtype": "int32"}, {"name": "StatefulPartitionedCall/transformer_2/encoder_2/encoder_layer_6/global_self_attention_6/layer_normalization_30/ones/Const", "shape": [], "dtype": "float32"}, {"name": "StatefulPartitionedCall/transformer_2/encoder_2/encoder_layer_6/global_self_attention_6/layer_normalization_30/strided_slice/stack", "shape": [1], "dtype": "int32"}, {"name": "StatefulPartitionedCall/transformer_2/encoder_2/encoder_layer_6/global_self_attention_6/layer_normalization_30/strided_slice/stack_1", "shape": [1], "dtype": "int32"}, {"name": "StatefulPartitionedCall/transformer_2/encoder_2/encoder_layer_6/global_self_attention_6/layer_normalization_30/strided_slice/stack_2", "shape": [1], "dtype": "int32"}, {"name": "StatefulPartitionedCall/transformer_2/encoder_2/encoder_layer_6/global_self_attention_6/layer_normalization_30/strided_slice_1/stack", "shape": [1], "dtype": "int32"}, {"name": "StatefulPartitionedCall/transformer_2/encoder_2/encoder_layer_6/global_self_attention_6/layer_normalization_30/strided_slice_1/stack_1", "shape": [1], "dtype": "int32"}, {"name": "StatefulPartitionedCall/transformer_2/encoder_2/encoder_layer_6/global_self_attention_6/layer_normalization_30/strided_slice_1/stack_2", "shape": [1], "dtype": "int32"}, {"name": "StatefulPartitionedCall/transformer_2/encoder_2/encoder_layer_6/global_self_attention_6/layer_normalization_30/zeros/Const", "shape": [], "dtype": "float32"}, {"name": "StatefulPartitionedCall/transformer_2/encoder_2/encoder_layer_6/global_self_attention_6/layer_normalization_30/Const", "shape": [0], "dtype": "float32"}, {"name": "StatefulPartitionedCall/transformer_2/encoder_2/encoder_layer_6/global_self_attention_6/layer_normalization_30/Const_1", "shape": [0], "dtype": "float32"}, {"name": "StatefulPartitionedCall/transformer_2/encoder_2/encoder_layer_6/global_self_attention_6/multi_head_attention_18/key/einsum/Einsum/ReadVariableOp", "shape": [128, 8, 128], "dtype": "float32"}, {"name": "StatefulPartitionedCall/transformer_2/encoder_2/encoder_layer_6/global_self_attention_6/multi_head_attention_18/key/add/ReadVariableOp", "shape": [8, 128], "dtype": "float32"}, {"name": "StatefulPartitionedCall/transformer_2/encoder_2/encoder_layer_6/global_self_attention_6/multi_head_attention_18/query/einsum/Einsum/ReadVariableOp", "shape": [128, 8, 128], "dtype": "float32"}, {"name": "StatefulPartitionedCall/transformer_2/encoder_2/encoder_layer_6/global_self_attention_6/multi_head_attention_18/query/add/ReadVariableOp", "shape": [8, 128], "dtype": "float32"}, {"name": "StatefulPartitionedCall/transformer_2/encoder_2/encoder_layer_6/global_self_attention_6/multi_head_attention_18/Mul/y", "shape": [], "dtype": "float32"}, {"name": "unknown", "shape": [1000, 128], "dtype": "float32"}, {"name": "StatefulPartitionedCall/transformer_2/encoder_2/positional_embedding_4/embedding_4/embedding_lookup/axis", "shape": [], "dtype": "int32"}, {"name": "StatefulPartitionedCall/transformer_2/encoder_2/positional_embedding_4/Sqrt", "shape": [], "dtype": "float32"}, {"name": "unknown_0", "shape": [2048, 128], "dtype": "float32"}, {"name": "StatefulPartitionedCall/transformer_2/encoder_2/positional_embedding_4/strided_slice_1/stack", "shape": [3], "dtype": "int32"}, {"name": "StatefulPartitionedCall/transformer_2/encoder_2/positional_embedding_4/strided_slice_1/stack_1/0", "shape": [], "dtype": "int32"}, {"name": "StatefulPartitionedCall/transformer_2/encoder_2/positional_embedding_4/strided_slice/stack", "shape": [1], "dtype": "int32"}, {"name": "StatefulPartitionedCall/transformer_2/encoder_2/positional_embedding_4/strided_slice/stack_1", "shape": [1], "dtype": "int32"}, {"name": "StatefulPartitionedCall/transformer_2/encoder_2/positional_embedding_4/strided_slice/stack_2", "shape": [1], "dtype": "int32"}, {"name": "StatefulPartitionedCall/transformer_2/encoder_2/positional_embedding_4/strided_slice_1/stack_1/2", "shape": [], "dtype": "int32"}, {"name": "StatefulPartitionedCall/transformer_2/encoder_2/positional_embedding_4/strided_slice_1/stack_2", "shape": [3], "dtype": "int32"}, {"name": "StatefulPartitionedCall/transformer_2/encoder_2/encoder_layer_6/global_self_attention_6/multi_head_attention_18/value/einsum/Einsum/ReadVariableOp", "shape": [128, 8, 128], "dtype": "float32"}, {"name": "StatefulPartitionedCall/transformer_2/encoder_2/encoder_layer_6/global_self_attention_6/multi_head_attention_18/value/add/ReadVariableOp", "shape": [8, 128], "dtype": "float32"}, {"name": "StatefulPartitionedCall/transformer_2/encoder_2/encoder_layer_6/global_self_attention_6/multi_head_attention_18/attention_output/einsum/Einsum/ReadVariableOp", "shape": [8, 128, 128], "dtype": "float32"}, {"name": "StatefulPartitionedCall/transformer_2/encoder_2/encoder_layer_6/global_self_attention_6/multi_head_attention_18/attention_output/add/ReadVariableOp", "shape": [128], "dtype": "float32"}, {"name": "StatefulPartitionedCall/transformer_2/encoder_2/encoder_layer_6/global_self_attention_6/layer_normalization_30/mul_3/ReadVariableOp", "shape": [128], "dtype": "float32"}, {"name": "StatefulPartitionedCall/transformer_2/encoder_2/encoder_layer_6/global_self_attention_6/layer_normalization_30/add/ReadVariableOp", "shape": [128], "dtype": "float32"}, {"name": "StatefulPartitionedCall/transformer_2/encoder_2/encoder_layer_6/feed_forward_12/sequential_12/dense_26/Tensordot/free", "shape": [2], "dtype": "int32"}, {"name": "StatefulPartitionedCall/transformer_2/encoder_2/encoder_layer_6/feed_forward_12/sequential_12/dense_26/Tensordot/GatherV2/axis", "shape": [], "dtype": "int32"}, {"name": "StatefulPartitionedCall/transformer_2/encoder_2/encoder_layer_6/feed_forward_12/sequential_12/dense_26/Tensordot/Const_2", "shape": [1], "dtype": "int32"}, {"name": "StatefulPartitionedCall/transformer_2/encoder_2/encoder_layer_6/feed_forward_12/sequential_12/dense_26/Tensordot/concat_1/axis", "shape": [], "dtype": "int32"}, {"name": "StatefulPartitionedCall/transformer_2/encoder_2/encoder_layer_6/feed_forward_12/sequential_12/dense_26/BiasAdd/ReadVariableOp", "shape": [2048], "dtype": "float32"}, {"name": "StatefulPartitionedCall/transformer_2/encoder_2/encoder_layer_6/feed_forward_12/sequential_12/dense_27/Tensordot/free", "shape": [2], "dtype": "int32"}, {"name": "StatefulPartitionedCall/transformer_2/encoder_2/encoder_layer_6/feed_forward_12/sequential_12/dense_27/Tensordot/GatherV2/axis", "shape": [], "dtype": "int32"}, {"name": "StatefulPartitionedCall/transformer_2/encoder_2/encoder_layer_6/feed_forward_12/sequential_12/dense_27/Tensordot/Const_2", "shape": [1], "dtype": "int32"}, {"name": "StatefulPartitionedCall/transformer_2/encoder_2/encoder_layer_6/feed_forward_12/sequential_12/dense_27/Tensordot/concat_1/axis", "shape": [], "dtype": "int32"}, {"name": "StatefulPartitionedCall/transformer_2/encoder_2/encoder_layer_6/feed_forward_12/sequential_12/dense_27/BiasAdd/ReadVariableOp", "shape": [128], "dtype": "float32"}, {"name": "StatefulPartitionedCall/transformer_2/encoder_2/encoder_layer_6/feed_forward_12/layer_normalization_31/mul_3/ReadVariableOp", "shape": [128], "dtype": "float32"}, {"name": "StatefulPartitionedCall/transformer_2/encoder_2/encoder_layer_6/feed_forward_12/layer_normalization_31/add/ReadVariableOp", "shape": [128], "dtype": "float32"}, {"name": "StatefulPartitionedCall/transformer_2/encoder_2/encoder_layer_7/global_self_attention_7/multi_head_attention_19/value/einsum/Einsum/ReadVariableOp", "shape": [128, 8, 128], "dtype": "float32"}, {"name": "StatefulPartitionedCall/transformer_2/encoder_2/encoder_layer_7/global_self_attention_7/multi_head_attention_19/value/add/ReadVariableOp", "shape": [8, 128], "dtype": "float32"}, {"name": "StatefulPartitionedCall/transformer_2/encoder_2/encoder_layer_7/global_self_attention_7/multi_head_attention_19/attention_output/einsum/Einsum/ReadVariableOp", "shape": [8, 128, 128], "dtype": "float32"}, {"name": "StatefulPartitionedCall/transformer_2/encoder_2/encoder_layer_7/global_self_attention_7/multi_head_attention_19/attention_output/add/ReadVariableOp", "shape": [128], "dtype": "float32"}, {"name": "StatefulPartitionedCall/transformer_2/encoder_2/encoder_layer_7/global_self_attention_7/layer_normalization_32/mul_3/ReadVariableOp", "shape": [128], "dtype": "float32"}, {"name": "StatefulPartitionedCall/transformer_2/encoder_2/encoder_layer_7/global_self_attention_7/layer_normalization_32/add/ReadVariableOp", "shape": [128], "dtype": "float32"}, {"name": "StatefulPartitionedCall/transformer_2/encoder_2/encoder_layer_7/feed_forward_13/sequential_13/dense_28/Tensordot/free", "shape": [2], "dtype": "int32"}, {"name": "StatefulPartitionedCall/transformer_2/encoder_2/encoder_layer_7/feed_forward_13/sequential_13/dense_28/Tensordot/GatherV2/axis", "shape": [], "dtype": "int32"}, {"name": "StatefulPartitionedCall/transformer_2/encoder_2/encoder_layer_7/feed_forward_13/sequential_13/dense_28/Tensordot/Const_2", "shape": [1], "dtype": "int32"}, {"name": "StatefulPartitionedCall/transformer_2/encoder_2/encoder_layer_7/feed_forward_13/sequential_13/dense_28/Tensordot/concat_1/axis", "shape": [], "dtype": "int32"}, {"name": "StatefulPartitionedCall/transformer_2/encoder_2/encoder_layer_7/feed_forward_13/sequential_13/dense_28/BiasAdd/ReadVariableOp", "shape": [2048], "dtype": "float32"}, {"name": "StatefulPartitionedCall/transformer_2/encoder_2/encoder_layer_7/feed_forward_13/sequential_13/dense_29/Tensordot/free", "shape": [2], "dtype": "int32"}, {"name": "StatefulPartitionedCall/transformer_2/encoder_2/encoder_layer_7/feed_forward_13/sequential_13/dense_29/Tensordot/GatherV2/axis", "shape": [], "dtype": "int32"}, {"name": "StatefulPartitionedCall/transformer_2/encoder_2/encoder_layer_7/feed_forward_13/sequential_13/dense_29/Tensordot/Const_2", "shape": [1], "dtype": "int32"}, {"name": "StatefulPartitionedCall/transformer_2/encoder_2/encoder_layer_7/feed_forward_13/sequential_13/dense_29/Tensordot/concat_1/axis", "shape": [], "dtype": "int32"}, {"name": "StatefulPartitionedCall/transformer_2/encoder_2/encoder_layer_7/feed_forward_13/sequential_13/dense_29/BiasAdd/ReadVariableOp", "shape": [128], "dtype": "float32"}, {"name": "StatefulPartitionedCall/transformer_2/encoder_2/encoder_layer_7/feed_forward_13/layer_normalization_33/mul_3/ReadVariableOp", "shape": [128], "dtype": "float32"}, {"name": "StatefulPartitionedCall/transformer_2/encoder_2/encoder_layer_7/feed_forward_13/layer_normalization_33/add/ReadVariableOp", "shape": [128], "dtype": "float32"}, {"name": "StatefulPartitionedCall/transformer_2/decoder_2/decoder_layer_7/cross_attention_7/multi_head_attention_23/value/einsum/Einsum/ReadVariableOp", "shape": [128, 8, 128], "dtype": "float32"}, {"name": "StatefulPartitionedCall/transformer_2/decoder_2/decoder_layer_7/cross_attention_7/multi_head_attention_23/value/add/ReadVariableOp", "shape": [8, 128], "dtype": "float32"}, {"name": "StatefulPartitionedCall/transformer_2/decoder_2/decoder_layer_7/cross_attention_7/multi_head_attention_23/attention_output/einsum/Einsum/ReadVariableOp", "shape": [8, 128, 128], "dtype": "float32"}, {"name": "StatefulPartitionedCall/transformer_2/decoder_2/decoder_layer_7/cross_attention_7/multi_head_attention_23/attention_output/add/ReadVariableOp", "shape": [128], "dtype": "float32"}, {"name": "StatefulPartitionedCall/transformer_2/decoder_2/decoder_layer_7/cross_attention_7/layer_normalization_38/mul_3/ReadVariableOp", "shape": [128], "dtype": "float32"}, {"name": "StatefulPartitionedCall/transformer_2/decoder_2/decoder_layer_7/cross_attention_7/layer_normalization_38/add/ReadVariableOp", "shape": [128], "dtype": "float32"}, {"name": "StatefulPartitionedCall/transformer_2/decoder_2/decoder_layer_7/feed_forward_15/sequential_15/dense_32/Tensordot/free", "shape": [2], "dtype": "int32"}, {"name": "StatefulPartitionedCall/transformer_2/decoder_2/decoder_layer_7/feed_forward_15/sequential_15/dense_32/Tensordot/GatherV2/axis", "shape": [], "dtype": "int32"}, {"name": "StatefulPartitionedCall/transformer_2/decoder_2/decoder_layer_7/feed_forward_15/sequential_15/dense_32/Tensordot/Const_2", "shape": [1], "dtype": "int32"}, {"name": "StatefulPartitionedCall/transformer_2/decoder_2/decoder_layer_7/feed_forward_15/sequential_15/dense_32/Tensordot/concat_1/axis", "shape": [], "dtype": "int32"}, {"name": "StatefulPartitionedCall/transformer_2/decoder_2/decoder_layer_7/feed_forward_15/sequential_15/dense_32/BiasAdd/ReadVariableOp", "shape": [2048], "dtype": "float32"}, {"name": "StatefulPartitionedCall/transformer_2/decoder_2/decoder_layer_7/feed_forward_15/sequential_15/dense_33/Tensordot/free", "shape": [2], "dtype": "int32"}, {"name": "StatefulPartitionedCall/transformer_2/decoder_2/decoder_layer_7/feed_forward_15/sequential_15/dense_33/Tensordot/GatherV2/axis", "shape": [], "dtype": "int32"}, {"name": "StatefulPartitionedCall/transformer_2/decoder_2/decoder_layer_7/feed_forward_15/sequential_15/dense_33/Tensordot/Const_2", "shape": [1], "dtype": "int32"}, {"name": "StatefulPartitionedCall/transformer_2/decoder_2/decoder_layer_7/feed_forward_15/sequential_15/dense_33/Tensordot/concat_1/axis", "shape": [], "dtype": "int32"}, {"name": "StatefulPartitionedCall/transformer_2/decoder_2/decoder_layer_7/feed_forward_15/sequential_15/dense_33/BiasAdd/ReadVariableOp", "shape": [128], "dtype": "float32"}, {"name": "StatefulPartitionedCall/transformer_2/decoder_2/decoder_layer_7/feed_forward_15/layer_normalization_39/mul_3/ReadVariableOp", "shape": [128], "dtype": "float32"}, {"name": "StatefulPartitionedCall/transformer_2/decoder_2/decoder_layer_7/feed_forward_15/layer_normalization_39/add/ReadVariableOp", "shape": [128], "dtype": "float32"}, {"name": "StatefulPartitionedCall/transformer_2/dense_34/Tensordot/free", "shape": [2], "dtype": "int32"}, {"name": "StatefulPartitionedCall/transformer_2/dense_34/Tensordot/GatherV2/axis", "shape": [], "dtype": "int32"}, {"name": "StatefulPartitionedCall/transformer_2/dense_34/Tensordot/Const_2", "shape": [1], "dtype": "int32"}, {"name": "StatefulPartitionedCall/transformer_2/dense_34/Tensordot/concat_1/axis", "shape": [], "dtype": "int32"}, {"name": "StatefulPartitionedCall/transformer_2/dense_34/BiasAdd/ReadVariableOp", "shape": [1000], "dtype": "float32"}, {"name": "ConstantFolding/StatefulPartitionedCall/transformer_2/encoder_2/encoder_layer_6/global_self_attention_6/layer_normalization_30/ones/packed_const_axis", "shape": [], "dtype": "int32"}, {"name": "ConstantFolding/StatefulPartitionedCall/transformer_2/encoder_2/encoder_layer_6/global_self_attention_6/layer_normalization_30/zeros/packed_const_axis", "shape": [], "dtype": "int32"}, {"name": "ConstantFolding/StatefulPartitionedCall/transformer_2/decoder_2/decoder_layer_6/causal_self_attention_6/layer_normalization_34/ones/packed_const_axis", "shape": [], "dtype": "int32"}, {"name": "ConstantFolding/StatefulPartitionedCall/transformer_2/decoder_2/decoder_layer_6/causal_self_attention_6/layer_normalization_34/zeros/packed_const_axis", "shape": [], "dtype": "int32"}, {"name": "ConstantFolding/StatefulPartitionedCall/transformer_2/encoder_2/encoder_layer_6/feed_forward_12/layer_normalization_31/ones/packed_const_axis", "shape": [], "dtype": "int32"}, {"name": "ConstantFolding/StatefulPartitionedCall/transformer_2/encoder_2/encoder_layer_6/feed_forward_12/layer_normalization_31/zeros/packed_const_axis", "shape": [], "dtype": "int32"}, {"name": "ConstantFolding/StatefulPartitionedCall/transformer_2/encoder_2/encoder_layer_7/global_self_attention_7/layer_normalization_32/ones/packed_const_axis", "shape": [], "dtype": "int32"}, {"name": "ConstantFolding/StatefulPartitionedCall/transformer_2/encoder_2/encoder_layer_7/global_self_attention_7/layer_normalization_32/zeros/packed_const_axis", "shape": [], "dtype": "int32"}, {"name": "ConstantFolding/StatefulPartitionedCall/transformer_2/encoder_2/encoder_layer_7/feed_forward_13/layer_normalization_33/ones/packed_const_axis", "shape": [], "dtype": "int32"}, {"name": "ConstantFolding/StatefulPartitionedCall/transformer_2/encoder_2/encoder_layer_7/feed_forward_13/layer_normalization_33/zeros/packed_const_axis", "shape": [], "dtype": "int32"}, {"name": "ConstantFolding/StatefulPartitionedCall/transformer_2/decoder_2/decoder_layer_6/cross_attention_6/layer_normalization_35/ones/packed_const_axis", "shape": [], "dtype": "int32"}, {"name": "ConstantFolding/StatefulPartitionedCall/transformer_2/decoder_2/decoder_layer_6/cross_attention_6/layer_normalization_35/zeros/packed_const_axis", "shape": [], "dtype": "int32"}, {"name": "ConstantFolding/StatefulPartitionedCall/transformer_2/decoder_2/decoder_layer_6/feed_forward_14/layer_normalization_36/ones/packed_const_axis", "shape": [], "dtype": "int32"}, {"name": "ConstantFolding/StatefulPartitionedCall/transformer_2/decoder_2/decoder_layer_6/feed_forward_14/layer_normalization_36/zeros/packed_const_axis", "shape": [], "dtype": "int32"}, {"name": "ConstantFolding/StatefulPartitionedCall/transformer_2/decoder_2/decoder_layer_7/causal_self_attention_7/layer_normalization_37/ones/packed_const_axis", "shape": [], "dtype": "int32"}, {"name": "ConstantFolding/StatefulPartitionedCall/transformer_2/decoder_2/decoder_layer_7/causal_self_attention_7/layer_normalization_37/zeros/packed_const_axis", "shape": [], "dtype": "int32"}, {"name": "ConstantFolding/StatefulPartitionedCall/transformer_2/decoder_2/decoder_layer_7/cross_attention_7/layer_normalization_38/ones/packed_const_axis", "shape": [], "dtype": "int32"}, {"name": "ConstantFolding/StatefulPartitionedCall/transformer_2/decoder_2/decoder_layer_7/cross_attention_7/layer_normalization_38/zeros/packed_const_axis", "shape": [], "dtype": "int32"}, {"name": "ConstantFolding/StatefulPartitionedCall/transformer_2/decoder_2/decoder_layer_7/feed_forward_15/layer_normalization_39/ones/packed_const_axis", "shape": [], "dtype": "int32"}, {"name": "ConstantFolding/StatefulPartitionedCall/transformer_2/decoder_2/decoder_layer_7/feed_forward_15/layer_normalization_39/zeros/packed_const_axis", "shape": [], "dtype": "int32"}]}]}